tcs_lstm_model_optimized.pth (torch, 503089 bytes, 11 tensors)

lstm.weight_ih_l0 f4 [400, 1]
0	0xbd493474	-0.04912229
1	0xbd6d481c	-0.057930097
2	0xbda84bb9	-0.08217568
3	0xbda29e1c	-0.07940313
4	0x3ca062bf	0.019578336
5	0x3c6d744b	0.014493058
6	0xbd74a1f9	-0.05972478
7	0x3d1a82d1	0.037722412
8	0xbd021219	-0.03175554
9	0xbd5cdd42	-0.053921945
10	0xbc81fc78	-0.015867457
11	0x3d9d09d2	0.07667889
12	0xbcf6ee55	-0.030142942
13	0x3d1f3120	0.03886521
14	0x3acf9d4a	0.0015839722
15	0x3da5730e	0.080785856
16	0xbcc82480	-0.024431467
17	0x3d1bfa05	0.038080234
18	0x3d24ceb4	0.04023619
19	0xbd31d319	-0.04341421
20	0x3de89da4	0.113581926
21	0xbd2e4a80	-0.042551517
22	0x3d9e9084	0.07742408
23	0xbddb2d40	-0.1070199
24	0xbd0c3856	-0.034233414
25	0x3d8501a4	0.064944535
26	0x3bb37a4a	0.0054772245
27	0x3d0ef1f5	0.034898717
28	0xbc13ec8f	-0.009028568
29	0xbd0c6df2	-0.03428454
30	0x3d469c5e	0.048488967
31	0xbc677f5c	-0.014129486
32	0x3dacb8f6	0.08433716
33	0x3dfef802	0.124496475
34	0xbd9a2a62	-0.07527615
35	0x3c6e8b94	0.014559645
36	0xbd625d70	-0.05526489
37	0x3d5328c9	0.051552568
38	0x3c13a8bf	0.0090124
39	0x3d777301	0.06041241
40	0x3dbc52e5	0.091954984
41	0x3d530312	0.0515166
42	0x3da0cda2	0.07851721
43	0x3d486a86	0.048929714
44	0x3d6dbcef	0.05804151
45	0xbd4ad9e5	-0.049524207
46	0x3c48ff41	0.0122678885
47	0x3b27424b	0.0025521691
48	0x3d53acb9	0.051678393
49	0x3d776a99	0.060404394
50	0x3dd36cab	0.10323461
51	0x3d138f81	0.036025528
52	0x3c646ab6	0.0139414575
53	0xbdbda154	-0.092592865
54	0x3dd7d2e7	0.10538273
55	0x3d6f02ee	0.058352403
56	0xbd9e228f	-0.07721435
57	0xbe029e80	-0.12755775
58	0x3c14b52a	0.009076396
59	0xbdc2958e	-0.095011815
60	0xbddbfdae	-0.10741745
61	0xbcac8062	-0.021057311
62	0x3d91010a	0.07080276
63	0x3bc3e1b1	0.0059778322
64	0x3e01398e	0.12619612
65	0x3d80d60b	0.062908255
66	0x3c9d7acb	0.019223591
67	0xbbc91951	-0.006137051
68	0x3d881855	0.06645266
69	0x3da269e8	0.07930356
70	0xbdfd29ec	-0.123615116
71	0x3df9bd7f	0.12194347
72	0xbccfbade	-0.02535766
73	0xbd7a48f0	-0.061104715
74	0xbd531520	-0.05153382
75	0x3db7dd13	0.089777134
76	0xbdcf55a3	-0.10123756
77	0x3dd70d3f	0.10500573
78	0xbc93a0d4	-0.018021025
79	0x3ccaebf9	0.024770724
80	0x3db7c881	0.0897379
81	0x3d675934	0.056481555
82	0x3d984272	0.074345484
83	0x3d6a02a1	0.057131413
84	0xbcdd3bd0	-0.02700606
85	0xbdce06a8	-0.10059863
86	0x3c03263c	0.008004721
87	0x3dd89f81	0.10577298
88	0x3caedaf9	0.021344649
89	0xbd376909	-0.044777904
90	0x3d2c865b	0.04212032
91	0xbdf8fcac	-0.12157568
92	0x3d989e33	0.07452049
93	0xbd161f82	-0.036651142
94	0x3c3ca935	0.0115149515
95	0x3c9e06c2	0.019290332
96	0xbc7cc913	-0.015428799
97	0x3db1a95d	0.086748816
98	0xbcb6a256	-0.022294205
99	0x3cd6f9cc	0.02624216
100	0x3d90f8fc	0.0707874
101	0x3d45375e	0.048148505
102	0xbc9ae814	-0.018909492
103	0xbc023ee4	-0.007949565
104	0x3d3f326b	0.04667894
105	0xbc1258ea	-0.008932332
106	0xbda2f9b4	-0.07957783
107	0xbc07e85c	-0.008295145
108	0xbd0e8807	-0.034797695
109	0x3d24fc81	0.04027987
110	0x3d02a0d5	0.031891663
111	0xbda86af7	-0.08223527
112	0x3d8705e9	0.06592924
113	0x3d217573	0.03941865
114	0x3e0b9f70	0.1363504
115	0xbcf4c69e	-0.029879864
116	0x39b4a127	0.00034452343
117	0x3d62a459	0.055332515
118	0x3dc169ad	0.09443984
119	0xbd34d60c	-0.044149444
120	0xbd70fe12	-0.05883605
121	0x3b0399ec	0.0020080758
122	0x3dc3fbcf	0.09569513
123	0xbd07312f	-0.03300589
124	0x3c278ada	0.010225976
125	0x3d2059ee	0.039148264
126	0xbda208d5	-0.07911841
127	0x3c9e081f	0.019290982
128	0xbd675725	-0.056479592
129	0xbdc486ba	-0.095960096
130	0x3c670c97	0.014102123
131	0x3c9fcd25	0.019507
132	0x3d8f0db1	0.06985033
133	0x3d834e9e	0.064114794
134	0x3a9d42e3	0.0011998083
135	0x3d10fc14	0.03539665
136	0x3dc561f6	0.09637825
137	0x3c813acc	0.015775107
138	0xbd56b28f	-0.05241638
139	0xbaab668e	-0.0013076828
140	0x3ce12007	0.027481092
141	0xbd68f1ca	-0.056871213
142	0x3d7507fe	0.059822075
143	0x3df67560	0.12034106
144	0xbc452d26	-0.01203469
145	0xbcfd0163	-0.03088445
146	0xbcadd6df	-0.021220623
147	0x3db3f1e5	0.08786372
148	0x3d4d54c6	0.050129674
149	0x3dbbcd61	0.09170032
150	0x3ddc4d69	0.10756952
151	0xbba2d1ab	-0.004968842
152	0xbc799226	-0.015232598
153	0x3cf88c16	0.030340236
154	0x3c555e20	0.013022929
155	0xbce2652f	-0.027636139
156	0xbd2a805e	-0.041626327
157	0x3caf9ac5	0.021436105
158	0xbbb0f3b1	-0.005400144
159	0x3b7f63cd	0.0038969398
160	0x3d99531b	0.07486554
161	0xbd64afee	-0.055831842
162	0xbb009e5a	-0.0019625635
163	0xbc6480ef	-0.013946756
164	0xbd069954	-0.03286107
165	0x3e0af538	0.13570106
166	0xbd6fc3d4	-0.058536366
167	0xbd16840c	-0.036747023
168	0xbd87ec97	-0.06636923
169	0x3da68ffc	0.081329316
170	0x3d040206	0.032228492
171	0x3da2e8f8	0.079545915
172	0x3d205cfd	0.03915118
173	0xbd55cff9	-0.05220029
174	0x3dabf766	0.08396797
175	0x3d85e269	0.06537325
176	0xbdd170fb	-0.102266274
177	0xbd7071eb	-0.05870239
178	0x3dd1ec5a	0.102501586
179	0xbd89a911	-0.067217
180	0x3d5c5a34	0.053796962
181	0x3d40679a	0.046973802
182	0x3d198548	0.037480623
183	0xbd42c000	-0.047546387
184	0x3dd1ec90	0.10250199
185	0xbcdb84b5	-0.026796678
186	0x3db4a512	0.08820547
187	0x3da59558	0.08085126
188	0x3ddf89cd	0.10914955
189	0xbdbc3750	-0.091902375
190	0xbdd10148	-0.102053225
191	0xbe06e814	-0.13174468
192	0x3bb942cd	0.005653715
193	0x3d4b4bf8	0.049632996
194	0x3dce09df	0.100604765
195	0xbdfd6f91	-0.12374795
196	0xbdb80e8e	-0.08987151
197	0xbc79f895	-0.0152570205
198	0xbdb61f69	-0.0889271
199	0x3d51d055	0.05122407
200	0x3c51815e	0.012787191
201	0x3d05289f	0.032509442
202	0xbdb3d03c	-0.08779952
203	0x3d237a03	0.03991128
204	0xbd82ac92	-0.063805714
205	0xbac48513	-0.0014993272
206	0xbd8de2ec	-0.069280475
207	0x3d70a0ae	0.058746986
208	0xbe0c2043	-0.13684182
209	0xbd23dbd8	-0.04000458
210	0x3d93f2e4	0.07224062
211	0xbe0c9cd1	-0.13731696
212	0x3ca5479e	0.020175751
213	0x3ccb2003	0.024795538
214	0x3dbd6883	0.0924845
215	0xbe0934a1	-0.13398983
216	0xbc15b687	-0.009137756
217	0x3d7e05cd	0.06201725
218	0xbda89164	-0.08230856
219	0xbdf28ad7	-0.11842888
220	0x3e03ece5	0.12883337
221	0x3ba6e03b	0.0050926483
222	0xbddb0898	-0.106949985
223	0x3c9408d8	0.018070623
224	0x3d9e3bd8	0.07726258
225	0x3d225f10	0.03964144
226	0xbdb5dcb5	-0.08879987
227	0x3d2850fa	0.04109285
228	0xbd3549c0	-0.044259787
229	0x3d1bae93	0.038008284
230	0x3daa9109	0.083284445
231	0xbde693ab	-0.11258634
232	0x3d3601eb	0.044435423
233	0xbe0cf5c0	-0.13765621
234	0x3b2d2930	0.0026422255
235	0xbc64b640	-0.013959467
236	0xbdb2e428	-0.087349236
237	0xbd784048	-0.06060818
238	0x3d27ef56	0.040999733
239	0x3dc2b0e7	0.09506398
240	0x3dec7cda	0.11547251
241	0xbdb9c57e	-0.09070872
242	0xbdab91bc	-0.08377406
243	0x3ddb8bb6	0.10720007
244	0x3e0a0b9d	0.13480993
245	0xb97fcb5a	-0.0002439445
246	0xbdc40f07	-0.09573179
247	0xbd9a75a1	-0.07541967
248	0x3da4da3a	0.08049436
249	0x3d11eab7	0.035624232
250	0x3deba668	0.11506349
251	0xbd6cc479	-0.05780456
252	0xbe077de0	-0.13231611
253	0xbd624eb8	-0.055250853
254	0xbc661892	-0.014043944
255	0x3dd91ae3	0.10600831

lstm.weight_hh_l0 f4 [400, 100]
0	0xbd45144c	-0.04811506
1	0xbd71fac4	-0.05907704
2	0xbc09eb81	-0.008417965
3	0xbd43851c	-0.047734365
4	0x3dc62ef2	0.09676923
5	0x3db497bd	0.08818004
6	0x3d1d3375	0.03837915
7	0x3d4907d2	0.049079724
8	0x3d93d9fa	0.0721931
9	0x3d5d49a2	0.0540253
10	0xbc47716c	-0.012173038
11	0x3d6a4c9b	0.057201963
12	0x3cbea7e0	0.023273408
13	0xbd730465	-0.059330363
14	0xbb7c52b6	-0.0038501448
15	0x3c94a28c	0.018143915
16	0x3cfdcbc1	0.030980946
17	0xbc5a0485	-0.013306742
18	0xbd242e8e	-0.04008346
19	0xbd6e7301	-0.058215145
20	0x3d1d1542	0.03835035
21	0x3c42881c	0.011873271
22	0x3db2f0a9	0.087373085
23	0xbd3a4321	-0.045474175
24	0xbdac5e26	-0.08416395
25	0x3dd0b412	0.10190596
26	0x3d7e88c7	0.06214216
27	0x3c592865	0.01325426
28	0xbd7b9f87	-0.061431434
29	0xbcc8aa36	-0.024495225
30	0xbcc88a93	-0.02448014
31	0x3d51d901	0.05123234
32	0xbd2027ed	-0.039100576
33	0x3dc68479	0.09693236
34	0xbdcddaf9	-0.10051531
35	0xbd9f5176	-0.07779209
36	0x3d230874	0.039802983
37	0x3d47dced	0.048794676
38	0x3ba02d9f	0.004888251
39	0xbd27d733	-0.040976714
40	0xbd544ebb	-0.051832896
41	0xbda0d534	-0.07853165
42	0x3ca65ca9	0.020307856
43	0xbd6aece6	-0.05735483
44	0xbd0063d2	-0.031345196
45	0x3b8dd2ea	0.0043281214
46	0x3d841944	0.064501315
47	0x3c610366	0.01373372
48	0x3cc986c9	0.024600403
49	0xbcda5e3f	-0.026656268
50	0xbcba08b5	-0.02270923
51	0xbd821009	-0.06350715
52	0xbdb1d219	-0.08682651
53	0x3c862b9b	0.016378215
54	0x3b823e8a	0.0039747404
55	0xbd687a86	-0.056757472
56	0xbdcb65f8	-0.09931558
57	0xbd902aca	-0.07039411
58	0x3da2de95	0.079526104
59	0xbd53a3aa	-0.051669754
60	0xb9b967ef	-0.00035363386
61	0x3d0fdd76	0.03512331
62	0x3c1c0c34	0.009524394
63	0x3d242df4	0.040082887
64	0xbd81306c	-0.06308064
65	0x3cb1a603	0.021685606
66	0xbd723117	-0.059128847
67	0xbd03988a	-0.032127894
68	0xbd33d2c9	-0.043902192
69	0xbd27e276	-0.040987454
70	0x3d98908a	0.07449444
71	0xbcb72932	-0.02235851
72	0xbdd086b4	-0.101819426
73	0xbd1a7a30	-0.037714183
74	0xbd9c41cb	-0.076297365
75	0xbd80ce0c	-0.062893
76	0x3d525ec0	0.051359892
77	0x3d218704	0.0394354
78	0x3d8e7faa	0.06957944
79	0x3dbf5348	0.093420565
80	0xbdbde8ec	-0.09272942
81	0xbdc1ed78	-0.09469122
82	0xbd1abadd	-0.037775863
83	0x3ad69923	0.0016372543
84	0xbd316ac2	-0.043314703
85	0xbd1beef9	-0.0380697
86	0x3d95d4e1	0.07315994
87	0xbcd56a41	-0.026051642
88	0x3cbadf56	0.022811573
89	0x3cfeaafd	0.031087393
90	0xbc2f4c68	-0.010699369
91	0xbd9af4e3	-0.0756624
92	0xbc83f813	-0.016109502
93	0xbcb80d00	-0.022467136
94	0x3c33da54	0.010977346
95	0xbc582875	-0.013193239
96	0x3cdccf85	0.026954422
97	0xbc0209a4	-0.007936869
98	0xbdafed2b	-0.08590158
99	0x3d886a48	0.066608965
100	0xbdbd227e	-0.092350945
101	0x3c2d87d5	0.010591467
102	0x3b807ce4	0.003921138
103	0xbd5b9b86	-0.053615116
104	0x3d686132	0.056733318
105	0x3c4a6f77	0.012355677
106	0x3d5f9847	0.054588582
107	0xbd2c95da	-0.042135097
108	0xbdcbf67c	-0.099591225
109	0xba1cab6c	-0.00059764716
110	0x3c8fd077	0.017555458
111	0xbcceb369	-0.025232034
112	0xbd523eaa	-0.051329292
113	0xbd8ac9df	-0.06776785
114	0xbd0b86a7	-0.03406396
115	0xbd2eeb42	-0.042704828
116	0xbd84d488	-0.064858496
117	0x3c0d8ce9	0.008639553
118	0x3ced375b	0.02895706
119	0x3981906e	0.00024712406
120	0xbd916b61	-0.07100559
121	0x3c9c3b4b	0.019071242
122	0xbd5e7e67	-0.054319765
123	0x3cf26e02	0.029593471
124	0x3c898cd4	0.016790785
125	0xbd8ce156	-0.06878917
126	0x3d002613	0.03128631
127	0x3d936ca3	0.07198455
128	0xbc577d85	-0.013152485
129	0x3db98994	0.09059444
130	0x3babc991	0.0052425344
131	0x3d140db1	0.03614587
132	0xbccce10d	-0.025009656
133	0x3c4fce6c	0.012683492
134	0x3dbb958b	0.091593824
135	0xbd28f351	-0.04124767
136	0xbdada704	-0.08479121
137	0x3b580a19	0.0032965003
138	0x3da42cf4	0.08016387
139	0x3d87a903	0.06624033
140	0x3cae0808	0.021244064
141	0xbdc7c8ce	-0.09755097
142	0xbce6476b	-0.028110227
143	0xbc914830	-0.017734617
144	0x3de5b602	0.11216356
145	0xbcce39c6	-0.025174033
146	0xbd837df4	-0.06420508
147	0x3da6752d	0.08127818
148	0x3db2ea99	0.08736152
149	0x3db472f3	0.08810987
150	0x3ba59b27	0.005053896
151	0xbd9e092c	-0.07716593
152	0xbd50c49f	-0.050968762
153	0x3dab82e6	0.08374576
154	0x3d5f1825	0.054466385
155	0x3be07667	0.006850052
156	0x3cdfecb0	0.027334541
157	0x3cd38802	0.02582169
158	0xbca84cc0	-0.02054441
159	0x3d8e8a69	0.069599934
160	0xbd289885	-0.04116108
161	0xbd84edaf	-0.06490647
162	0x3dab44f2	0.0836276
163	0xbc01cc68	-0.007922269
164	0x3dc2abd2	0.095054284
165	0xbdb8bffc	-0.09020993
166	0xbd01b373	-0.031665277
167	0xbd8c18d2	-0.068406716
168	0xbdba047f	-0.09082889
169	0xbdcf6456	-0.101265594
170	0xbd2da5e0	-0.04239452
171	0xbbaf707b	-0.005353985
172	0xbd855926	-0.06511144
173	0xbbe48ff8	-0.00697517
174	0x3cdaa469	0.026689725
175	0x3d3200a1	0.04345763
176	0x3d90d8c7	0.07072597
177	0x3caea8e7	0.021320773
178	0x3c831ba8	0.016004398
179	0x3c4e5a02	0.012594702
180	0xbd5b5600	-0.053548813
181	0xbd8831db	-0.06650134
182	0x3c08dc9d	0.00835338
183	0xbd1c9c8a	-0.038235225
184	0x3d758910	0.059945166
185	0xbd7ac99b	-0.061227422
186	0x3ac95f90	0.0015363563
187	0x3cb4c513	0.022066629
188	0xbd22c319	-0.03973684
189	0x3dc01cd9	0.09380502
190	0x3c2aa56d	0.010415417
191	0x3dbe3de7	0.09289151
192	0x3d91ab7c	0.07112786
193	0x3d961d3e	0.07329796
194	0xbc5a4bc8	-0.013323732
195	0xbd92d2ea	-0.07169135
196	0xbd78c8f2	-0.06073851
197	0xba8acf8e	-0.001059042
198	0x3d6fbaab	0.05852763
199	0x3d27937a	0.04091213
200	0xbd015e24	-0.03158392
201	0xbdc86ee5	-0.097867765
202	0xbd3821c9	-0.044954095
203	0x3dadfbaf	0.084952705
204	0xbd946b2a	-0.072470024
205	0xbd92b9d0	-0.07164347
206	0xbdc187c0	-0.094497204
207	0xbd51831f	-0.051150437
208	0xbcaef665	-0.021357724
209	0xbda9bb91	-0.082877286
210	0x3c079df6	0.008277407
211	0x3dce73a7	0.10080653
212	0x3afb0bc6	0.0019153289
213	0xbd4864ba	-0.048924185
214	0x3cc5728b	0.02410247
215	0x3dafcd64	0.08584097
216	0xbd42ee23	-0.047590386
217	0xbd962f46	-0.073332354
218	0xbd97ce4c	-0.07412395
219	0xbda99295	-0.082799114
220	0xbd7b6520	-0.061375737
221	0x3db29a73	0.08720865
222	0x3b9315eb	0.004488697
223	0x3b68a1a9	0.0035496748
224	0x3d39e947	0.045388486
225	0x3c780509	0.015137919
226	0xbca7b888	-0.020473734
227	0xbc40e605	-0.011773591
228	0x3cbc6d1b	0.023001244
229	0x3da8a383	0.082343124
230	0xbdb6d0f4	-0.089265734
231	0xbd74854f	-0.059697445
232	0xbd669702	-0.056296356
233	0x3d0e02c6	0.034670614
234	0xbd8d1d0a	-0.068903044
235	0xbdc4595e	-0.09587358
236	0xbb1edf90	-0.002424214
237	0x3d829d2f	0.06377637
238	0xbd8c5806	-0.06852727
239	0x3c53c9be	0.012926517
240	0x3d5c6373	0.05380578
241	0xbc27954e	-0.010228468
242	0x3d0e4ebc	0.034743056
243	0x3c89aac4	0.01680506
244	0xbd2f4d8b	-0.04279856
245	0x3ca3c1b4	0.019989826
246	0xbc136e1e	-0.008998422
247	0x3c13c540	0.009019196
248	0xbdbf429d	-0.09338877
249	0xbda53eb9	-0.08068604
250	0x3d56dea0	0.052458405
251	0xbdac44b5	-0.08411542
252	0x3bbf651c	0.0058409106
253	0x3c6933c5	0.014233534
254	0x3da06182	0.07831098
255	0xbd091f78	-0.033477277

lstm.bias_ih_l0 f4 [400]
0	0xbcdfad57	-0.027304335
1	0xbd94b436	-0.07260935
2	0x3b9acd6a	0.0047241943
3	0x3c0b46cf	0.008500769
4	0x3d9428e9	0.072343655
5	0x3c21c329	0.00987319
6	0xbd45e793	-0.04831655
7	0xbba9db83	-0.0051836385
8	0x3db212c6	0.08694987
9	0xbd3465b5	-0.044042308
10	0x3d8779ca	0.06615026
11	0xbc9b6261	-0.01896781
12	0x3daf40ef	0.08557307
13	0xbd3bcb23	-0.045848023
14	0x3dafe40b	0.085884176
15	0xbb2120f4	-0.0024586292
16	0x3ca21f62	0.019790355
17	0xbd0e1a7e	-0.034693234
18	0x3d23dbbc	0.040004477
19	0xbce99774	-0.028514601
20	0x3da78f70	0.081816554
21	0x3d57dbad	0.052699734
22	0x3d03b503	0.032155048
23	0x3d81370e	0.06309329
24	0x3b9eb05c	0.004842801
25	0x3d8f96a0	0.07011151
26	0xbc4df796	-0.012571236
27	0x3daf6c82	0.08565618
28	0x3d8e0d6a	0.06936152
29	0x3d3949c8	0.04523638
30	0x3cc44b12	0.023961578
31	0x3df05344	0.11734632
32	0x3c26cdce	0.010180904
33	0x3ce873b4	0.028375484
34	0x3d1f5ba6	0.038905762
35	0xbceddd75	-0.029036263
36	0x3d22fe79	0.039793465
37	0xbcf0b6c9	-0.029384034
38	0x3d6b89e6	0.057504557
39	0x3d4e52f6	0.050372086
40	0x3d8e52b6	0.069493696
41	0xbd10e23d	-0.035372008
42	0x3d932a82	0.07185842
43	0x3cc6c783	0.024265056
44	0x3d320960	0.043465972
45	0x3d9e0f9e	0.077178225
46	0xbda70631	-0.08155478
47	0xbc9aa642	-0.018878106
48	0x3d83dea1	0.064389475
49	0x3d7154d1	0.058918778
50	0x3bc2de7c	0.0059469324
51	0x3c73879b	0.014863874
52	0x3d27257e	0.04080724
53	0x3d3d6c73	0.046246003
54	0x3d573966	0.052544974
55	0x3d5238d5	0.05132373
56	0xbdb8cd9f	-0.09023594
57	0xbdb5bed4	-0.08874288
58	0xbd8bca3f	-0.06825685
59	0x3bfece73	0.0077760755
60	0x3d46ed8e	0.048566394
61	0xbd9b45cc	-0.07581672
62	0x3d6f3104	0.058396354
63	0x3cd4f5e6	0.02599616
64	0x3d5fe771	0.05466408
65	0x3d29e3a4	0.04147686
66	0xbd78fb2a	-0.060786404
67	0x3dc31cdd	0.095269896
68	0xbd16abb1	-0.03678483
69	0xbdbe31ce	-0.09286843
70	0xbd6dd72c	-0.058066532
71	0x3dfa1d2b	0.122125946
72	0xbd835c14	-0.06414047
73	0xbcbec38c	-0.023286603
74	0xbc2fa7fe	-0.010721205
75	0xbd5dccac	-0.05415027
76	0x3d9c4a39	0.07631344
77	0x3d9cffe9	0.076659985
78	0x3d86a70b	0.0657483
79	0x3c5d8577	0.01352059
80	0xbd81a171	-0.06329621
81	0xbd4cb4cb	-0.049977105
82	0x3d7bff8a	0.061522998
83	0x3dc25c16	0.0949022
84	0x3d3769f5	0.044778783
85	0x3d8c910b	0.06863602
86	0x3dc904ed	0.09815393
87	0xbd369b19	-0.044581506
88	0xbd9ffe4d	-0.07812176
89	0xbd5ece8b	-0.054396193
90	0x3ce847ab	0.028354486
91	0x3d97c449	0.07410485
92	0xbd7164d8	-0.058934063
93	0xbdb66bd9	-0.08907289
94	0x3da0e2d4	0.07855764
95	0x3dd01600	0.10160446
96	0xbd628c0c	-0.05530934
97	0xbd0a90dd	-0.03382956
98	0x3dcb966b	0.09940799
99	0x3d0fbf28	0.03509441
100	0x3cd7e531	0.026354404
101	0xbdd30813	-0.103042744
102	0x3d9c392a	0.07628091
103	0xbd86b236	-0.0657696
104	0xbd8f109d	-0.069855906
105	0xbca02fb4	-0.019553997
106	0xbb7a2f63	-0.0038175217
107	0x3d905c7d	0.07048891
108	0x3db2edec	0.08736786
109	0x3d70e34a	0.05881051
110	0xbd9acdad	-0.07558761
111	0x3c8a98f5	0.016918639
112	0xbd5a12a2	-0.053240426
113	0xbd91dae7	-0.071218304
114	0xbd009e90	-0.031401217
115	0x3dc5ffce	0.096679315
116	0xbd577873	-0.052605104
117	0x3cbdd3b1	0.023172231
118	0xbdbe113f	-0.09280633
119	0x3a617020	0.0008599777
120	0x3db56083	0.08856299
121	0x3d89990f	0.06718647
122	0x3d316509	0.043309245
123	0x3bc73c9b	0.006080223
124	0xbd952ad7	-0.07283562
125	0x3d771de5	0.060331244
126	0x3d9d1a2b	0.07671007
127	0xbc044fc6	-0.00807566
128	0xbc99a969	-0.018757539
129	0xbd2b728b	-0.041857284
130	0xbd8b7e22	-0.06811167
131	0x3b25045b	0.0025179598
132	0xbb8813ba	-0.004152742
133	0x3d111686	0.03542187
134	0x3d8dd6fc	0.06925771
135	0x3be5071a	0.006989372
136	0x3dc44805	0.09584049
137	0xbce966a5	-0.028491328
138	0xbcd01807	-0.025402082
139	0x3cf32771	0.029681893
140	0x3de80d5f	0.11330675
141	0xbd6eefdb	-0.058334213
142	0xbd43213a	-0.04763911
143	0xbd151e04	-0.03640558
144	0xbc8ccd6d	-0.017187798
145	0x3dbcb9bc	0.092151135
146	0xbd43412c	-0.047669575
147	0xbdb38ac6	-0.08766703
148	0xbc93ba3c	-0.01803314
149	0xbd9a413d	-0.075319745
150	0x3c2c4f04	0.010516886
151	0x3dab4f2e	0.08364712
152	0x3d3a3df0	0.045469224
153	0xbdcfe390	-0.10150826
154	0xbd165f90	-0.03671223
155	0xbd8c8cdb	-0.068628035
156	0xbd9aece2	-0.07564713
157	0xbc88e79e	-0.016712006
158	0x3c3afecb	0.011413286
159	0x3c8b0ce8	0.016973928
160	0x3c24eb25	0.010065828
161	0x3dba26e9	0.09089453
162	0xbd04f2ad	-0.032457996
163	0xbcb36c06	-0.021902096
164	0xbd73c66c	-0.0595154
165	0x3dbcb7fa	0.09214778
166	0xbdaf5161	-0.08560444
167	0x3d83d1de	0.06436513
168	0xbd2a96f4	-0.041647866
169	0x3d888448	0.06665856
170	0x3cdc870d	0.026919866
171	0xbd914705	-0.07093624
172	0x3c3d5f10	0.011558309
173	0x3d8e9ec1	0.06963874
174	0xbbcab67e	-0.0061863055
175	0xbdc75d96	-0.09734647
176	0xbda6a674	-0.08137217
177	0xbd9f1a8b	-0.077687345
178	0xbccdd082	-0.025123838
179	0xbda5b3e2	-0.080909505
180	0x3d8cd505	0.06876568
181	0x3d4037ca	0.046928205
182	0x3dd199d0	0.102344155
183	0x3da70e24	0.08156994
184	0xbc933d48	-0.017973557
185	0xbcbde65e	-0.023181137
186	0x3d57889f	0.052620526
187	0x3db56827	0.08857756
188	0xbd918067	-0.07104569
189	0xbd585ae9	-0.052821074
190	0xbd3985bb	-0.04529355
191	0x3d9ed5ef	0.07755648
192	0x3d5c8a1a	0.05384264
193	0x3d8f3110	0.0699178
194	0x3d036da1	0.032086972
195	0x3d8ea32a	0.06964715
196	0x3d9d131f	0.07669663
197	0x3dc95700	0.09831047
198	0x3dae24f3	0.08503141
199	0x3d5b8fdb	0.05360399
200	0xbc4c06eb	-0.012452821
201	0x3d509795	0.05092581
202	0x3dc1b79e	0.0945885
203	0xbd2f5c3c	-0.04281257
204	0xbd07a503	-0.03311635
205	0x3c967c94	0.01836995
206	0x3d9ffbba	0.07811685
207	0xbdc11db8	-0.094294965
208	0xbc2b1da5	-0.0104440795
209	0xbcbc67f8	-0.022998795
210	0xbdb0aef4	-0.0862712
211	0x3d9a114e	0.07522832
212	0xbd8e44a4	-0.06946686
213	0xbdc75b11	-0.097341664
214	0x3cc18e2e	0.023627367
215	0xbc9a1c11	-0.018812211
216	0xbd0aea40	-0.033914804
217	0x3dabd5ef	0.08390414
218	0xbc521b35	-0.0128238695
219	0x3c8a1d9e	0.016859826
220	0x3d19cad6	0.037546955
221	0xbd2e2e96	-0.042524897
222	0xbdbc85db	-0.092052184
223	0x3b73ac5a	0.0037181587
224	0xbd1e28bd	-0.03861307
225	0xbd76e89f	-0.06028044
226	0xbdbefca4	-0.09325531
227	0x3d76b6b8	0.060232848
228	0xbcad6f9c	-0.021171384
229	0xbd3c7038	-0.046005458
230	0x3c1b127c	0.009464856
231	0xbd30e0ff	-0.043183323
232	0x3da39942	0.07988216
233	0x3cbe05a1	0.023196043
234	0xbc3dcfa8	-0.011585154
235	0xbd6c9c57	-0.057766285
236	0x3cf96bc0	0.030446887
237	0x3d1d2a38	0.03837034
238	0x3c7c3747	0.0153940385
239	0xbda74d49	-0.08169038
240	0xbd4a78c4	-0.049431577
241	0x3da42c43	0.08016255
242	0xbd31d9db	-0.043420654
243	0x3d1c95a8	0.03822866
244	0xbd783b32	-0.060603328
245	0xbced00cf	-0.02893105
246	0xbd882cca	-0.06649168
247	0x3c9ac8e7	0.018894626
248	0x3d5e7e2a	0.05431954
249	0xbdb7b2e2	-0.08969666
250	0xbdcddfb0	-0.10052431
251	0xbcc27334	-0.023736574
252	0x3d55eaaa	0.052225746
253	0xbd9c4cc7	-0.076318316
254	0x3d383142	0.04496885
255	0xbd41ce04	-0.047315612

lstm.bias_hh_l0 f4 [400]
0	0xbd97fbb9	-0.07421059
1	0xbc97643b	-0.01848041
2	0x3c4bd05f	0.012439816
3	0xbd40a9cb	-0.047036927
4	0xbd2f7f9a	-0.0428463
5	0x3a0e5496	0.00054294744
6	0x3dbb27bc	0.09138438
7	0xbdae470e	-0.08509646
8	0x3de1e2de	0.110295996
9	0x3da75d86	0.08172135
10	0x3dc390dc	0.09549114
11	0x3d1c2737	0.038123336
12	0x3d819809	0.063278265
13	0x3d17814a	0.036988534
14	0x3d3a4472	0.04547543
15	0x3d6052ab	0.05476634
16	0x3ca28c8e	0.019842412
17	0xbd5f563e	-0.054525606
18	0x3d8d7d4a	0.069086626
19	0xbd9eff02	-0.07763483
20	0xbd6b92da	-0.057513095
21	0xbd3fdbdf	-0.046840545
22	0x3da92b29	0.08260185
23	0x3d12f74f	0.035880383
24	0xbdb3c3e2	-0.08777596
25	0x3d7b83cd	0.061404992
26	0x3c9352ed	0.017983878
27	0xbcf94651	-0.030429037
28	0xbca218e1	-0.019787254
29	0x3d5ad0f4	0.05342193
30	0x3ddeb4bb	0.10874315
31	0x3dbc29e2	0.09187676
32	0x3c9414e9	0.018076377
33	0xb9b82adc	-0.00035127148
34	0x3d70f6aa	0.058828987
35	0xbd166be2	-0.03672398
36	0x3d31e14a	0.043427743
37	0x3dd12559	0.102122016
38	0x3cb732fe	0.022363182
39	0x3c964f3b	0.018348327
40	0xbd1d4671	-0.038397256
41	0x3c97ac3c	0.018514745
42	0x3d9efeba	0.07763429
43	0x3dedccda	0.11611338
44	0x3d70b21a	0.0587636
45	0xbce5a619	-0.028033303
46	0x3d826c55	0.06368319
47	0x3d8aea48	0.06782967
48	0xbba3f9c7	-0.005004141
49	0xbd971d5e	-0.07378648
50	0x3d02e3c5	0.0319555
51	0xbd116413	-0.03549583
52	0xbce26264	-0.027634807
53	0x3dbef449	0.093239374
54	0x3d2e4e82	0.04255534
55	0xbda404cb	-0.08008727
56	0xbd0855d9	-0.033284996
57	0xbdb22849	-0.0869909
58	0x3d0f7913	0.035027575
59	0x3bb0e0a8	0.005397875
60	0x3d8d1cd0	0.06890261
61	0x3dd54969	0.104143925
62	0xb9906772	-0.00027542893
63	0x3d360831	0.044441406
64	0xbd75d887	-0.06002095
65	0xbd4103db	-0.047122817
66	0xbdaa34e6	-0.08310871
67	0x3ce70cf3	0.028204417
68	0xbd95380e	-0.07286082
69	0x3d85c201	0.06531144
70	0x3d0ed111	0.03486735
71	0xbcee82a8	-0.029115036
72	0xbd85497c	-0.06508157
73	0xbda18220	-0.078861475
74	0x3daa6d7b	0.08321663
75	0x3b1051b3	0.0022021353
76	0x3d79f0aa	0.06102053
77	0x3bd82bc3	0.0065970137
78	0x3d46f389	0.048572097
79	0x3d8f3ee3	0.069944166
80	0xbcb07089	-0.021538036
81	0xbc2f639e	-0.010704903
82	0x3dfdfb46	0.12401442
83	0xbc6e09be	-0.01452869
84	0xbd82eaa9	-0.06392414
85	0xbdaa4b31	-0.08315123
86	0x3dcc656d	0.09980283
87	0xbd106373	-0.035251092
88	0xbda41e03	-0.08013537
89	0x3d6f9219	0.05848894
90	0xbd08dd99	-0.033414457
91	0x3ca5f75f	0.020259557
92	0xbd6fa5d2	-0.058507748
93	0x3d88d8a9	0.0668195
94	0x3db444c2	0.08802177
95	0xbd180118	-0.037110418
96	0x3c3c4d06	0.011492973
97	0x3d0dcb9a	0.034617998
98	0x3afc8c6b	0.0019267922
99	0xbd1aa341	-0.037753347
100	0xbd4ac52f	-0.049504455
101	0xbd9ac16e	-0.07556425
102	0xbd9dcd58	-0.07705182
103	0x3dcc76ee	0.099836215
104	0xbd850566	-0.0649517
105	0x3d80243e	0.06256913
106	0xbb5b18bb	-0.0033431489
107	0xbc701012	-0.014652269
108	0x3da7975a	0.08183165
109	0x3c4558b3	0.012045073
110	0x3c835ae5	0.016034553
111	0x3d5b4c50	0.053539574
112	0x3db42081	0.08795262
113	0xbd97fe85	-0.074215926
114	0x3b6661b2	0.0035153446
115	0xbd6821d7	-0.056672897
116	0xbdb60e6a	-0.08889468
117	0xbd52ce81	-0.05146647
118	0xbcfacbc1	-0.030614736
119	0xbd4ef4d6	-0.050526462
120	0xbc4f4241	-0.0126500735
121	0xbd9fdb85	-0.07805542
122	0x3c94d59d	0.018168265
123	0x3da758e4	0.081712514
124	0xbd3c0e41	-0.04591203
125	0x3d12f49f	0.03587782
126	0xbd8e8210	-0.06958401
127	0xbdcbac09	-0.099449225
128	0xbd0ae3e6	-0.033908747
129	0x3d41cf5b	0.04731689
130	0x3dc032fa	0.09384723
131	0xbd83608d	-0.064149
132	0x3cad25c3	0.02113617
133	0x3ce9d56b	0.028544148
134	0x3ce4569b	0.027873328
135	0xbcb099b6	-0.02155767
136	0xbd49b9be	-0.049249403
137	0x3daf660f	0.08564388
138	0x3c44dbbe	0.012015281
139	0x3dd636d6	0.10459678
140	0x3ae043fd	0.0017110106
141	0x3d0ddb13	0.034632754
142	0xbd2edb56	-0.042689644
143	0x3de462dd	0.11151669
144	0xbd000c00	-0.031261444
145	0x3d4c5638	0.049886912
146	0x3c22016e	0.009888036
147	0x3d1342b4	0.035952285
148	0xbd8afc39	-0.06786389
149	0xbd467d06	-0.048459075
150	0xbc3367d8	-0.010950051
151	0x3cc4e01d	0.024032647
152	0x3dd19838	0.102341115
153	0xbc80bda3	-0.015715426
154	0xbd1f4240	-0.03888154
155	0xbdbe68a8	-0.09297305
156	0x3c8dd2aa	0.017312367
157	0xbda0d91f	-0.078539126
158	0x3b9f50c8	0.004861925
159	0x3d6de31d	0.05807792
160	0x3daa0336	0.08301394
161	0xbce18b2e	-0.027532186
162	0x3a4f5df1	0.00079104217
163	0x3d9746d7	0.073865585
164	0x3d6ece03	0.058301937
165	0xbca9c501	-0.020723822
166	0xbd684c42	-0.05671335
167	0x3d253c80	0.0403409
168	0xbd8ecd8d	-0.069727995
169	0xbc4b2227	-0.012398279
170	0xbd9187d2	-0.07105984
171	0x3d386a23	0.045023095
172	0x3ce0ef83	0.027457958
173	0x3d1988c8	0.03748396
174	0x3c532af3	0.012888658
175	0xbdd320f0	-0.10309017
176	0xbd94e17a	-0.07269569
177	0x3da0044b	0.07813319
178	0x3c4531e0	0.012035817
179	0xbd568c8d	-0.052380133
180	0x3da624a5	0.08112458
181	0x3d1f3506	0.038868926
182	0xbd19be42	-0.03753496
183	0x3d3d0e02	0.046155937
184	0xbdaddd8d	-0.08489523
185	0x3cced886	0.02524973
186	0x3d3211c3	0.04347397
187	0x3d98cea9	0.07461292
188	0xbd118f5e	-0.035537116
189	0xbbab62d7	-0.0052302885
190	0xbc63a159	-0.013893449
191	0x3d742c30	0.059612453
192	0xbcec031e	-0.02881008
193	0x3cfd2bec	0.030904733
194	0x3d893355	0.06699244
195	0x3d353e1d	0.04424869
196	0xbd890c95	-0.06691853
197	0x3b98ec80	0.004666865
198	0x3bcf6017	0.0063285935
199	0xbd102eef	-0.03520101
200	0x3d32cb9d	0.043651212
201	0x3d6bd8c5	0.057579774
202	0xbc2b1ae9	-0.010443428
203	0x3c1ff59a	0.009763146
204	0xbd31623f	-0.043306585
205	0xbbdf11ec	-0.0068075564
206	0xbce1d079	-0.027565228
207	0x3da17f32	0.07885589
208	0x3d8afb10	0.067861676
209	0x3daf3f24	0.08556965
210	0xbd697cca	-0.057003774
211	0x3c9eef3e	0.019401189
212	0xbdba5934	-0.090990454
213	0xbd9f40cb	-0.0777603
214	0x3ce7c1ba	0.028290618
215	0x3d7bcac1	0.061472658
216	0xbd742418	-0.059604734
217	0x3d57e440	0.05270791
218	0xbcce1bf6	-0.025159817
219	0x3ae3a3a0	0.001736749
220	0xbd05b9c6	-0.03264787
221	0x3b3464b0	0.0027525835
222	0xbd7aba9d	-0.061213125
223	0x3d77dd58	0.060513824
224	0x3d7f84be	0.062382452
225	0x3bf21d29	0.00738873
226	0xbd0e8cf6	-0.0348024
227	0x3ce3ccc7	0.027807606
228	0xbcdde880	-0.027088404
229	0x3c545bd1	0.012961344
230	0xbd862a11	-0.06550992
231	0x3ccfeba2	0.025380913
232	0xbcf4138d	-0.029794479
233	0x3d064da6	0.032788895
234	0x3d66169e	0.056173913
235	0x3d3ab749	0.04558495
236	0xbda4105d	-0.080109335
237	0xb7e5e268	-2.7404356e-05
238	0x3cb7a9da	0.022419859
239	0xbbe5e6fd	-0.0070160613
240	0x3da3d257	0.079991035
241	0xbc8f1c2b	-0.017469486
242	0xbd2edd71	-0.04269165
243	0xbd0982ac	-0.033571884
244	0x3d22f9f9	0.039789174
245	0xbda9abe2	-0.08284737
246	0xbcaa92c7	-0.020821942
247	0xbd98e9f8	-0.07466501
248	0xbd000de8	-0.031263262
249	0x3d8bc24f	0.06824171
250	0x3db086ab	0.08619436
251	0xbc4a6e30	-0.012355372
252	0xbd9ccf20	-0.076566935
253	0xbdb8851d	-0.09009764
254	0x3d3edd66	0.04659786
255	0xbd93101f	-0.07180809

lstm.weight_ih_l1 f4 [400, 100]
0	0x3dc9c010	0.09851086
1	0xbda411c5	-0.08011202
2	0x3db6a6ef	0.08918559
3	0xbdde8734	-0.10865632
4	0xbd6013b6	-0.054706298
5	0xbd5961b1	-0.05307168
6	0x3d140da5	0.036145825
7	0xbc27e88d	-0.0102483155
8	0xbaeea2df	-0.0018206498
9	0x3c86a02d	0.0164338
10	0xbd4ea559	-0.050450657
11	0xbc877612	-0.016535792
12	0x3c5a56a1	0.013326318
13	0xbcea4fb0	-0.028602451
14	0x3cebb77d	0.028774017
15	0x3db8a29b	0.090153895
16	0x3c23b6c5	0.009992306
17	0x3a05669a	0.0005088836
18	0x3d85f287	0.06540399
19	0xbc9a33d4	-0.018823542
20	0xbd47743d	-0.048694838
21	0xbd661076	-0.056168042
22	0xbdcb56e7	-0.09928685
23	0xbdba939d	-0.09110186
24	0x3b11ee08	0.0022267122
25	0x3d3f1a13	0.046655726
26	0x3d604253	0.05475075
27	0x3959b9f3	0.00020764004
28	0x3cc9c932	0.02463207
29	0xbcfaad42	-0.030600194
30	0x3d57316e	0.052537374
31	0xbd606b51	-0.054789845
32	0x3ccd1728	0.025035456
33	0x3da6e912	0.081499234
34	0x3dd17aa7	0.10228472
35	0x3c452ea4	0.012035046
36	0x3d45b278	0.048265904
37	0x3d290d60	0.04127252
38	0xbdab7402	-0.08371736
39	0x3d02d20c	0.031938598
40	0xbcaaa478	-0.020830378
41	0x3d243d78	0.040097684
42	0x3dbe7da2	0.09301306
43	0xbde11ddb	-0.109920226
44	0x3b97f57d	0.004637419
45	0xbd976843	-0.07392933
46	0xbd8f3a24	-0.06993511
47	0x3d8f63e3	0.07001474
48	0x3cb36933	0.021900749
49	0xbdc35a1e	-0.09538673
50	0xbd9abf34	-0.07556
51	0x3d4d00c4	0.05004956
52	0xbcad2c14	-0.021139182
53	0x3daa6cbf	0.08321523
54	0x3dce233c	0.10065314
55	0xbdc9b78e	-0.098494634
56	0x3db9e109	0.09076125
57	0x3d4e8a07	0.050424602
58	0xbd9678ba	-0.073472455
59	0x3d45dda1	0.048307065
60	0xbcb2f6fa	-0.021846283
61	0xbd016bf9	-0.03159711
62	0xbbfef8ff	-0.0077811475
63	0x3d68722d	0.05674951
64	0xbcf8a872	-0.030353758
65	0xbcbe2a4a	-0.023213524
66	0x3d83a91b	0.06428739
67	0xbb3b18f2	-0.0028548804
68	0xbd81fb6b	-0.06346782
69	0x3cb3ff43	0.021972304
70	0xbd89296c	-0.06697354
71	0xbd515585	-0.05110695
72	0xbd80432d	-0.06262813
73	0xbbc4ea36	-0.0060093654
74	0x3d43fe8a	0.04785017
75	0x3b2877c5	0.0025706154
76	0xbc063a29	-0.008192577
77	0xbd6efc85	-0.05834629
78	0xbd0e41e9	-0.034730826
79	0x3d2b52dc	0.041827068
80	0xbd5a18f2	-0.053246446
81	0xbd50a0fa	-0.05093477
82	0xbc811bf5	-0.015760401
83	0xbd7310ba	-0.059342124
84	0xbaa32476	-0.0012446779
85	0x3cdcb158	0.026940033
86	0x3caa018c	0.02075269
87	0xbd3d2438	-0.04617712
88	0xbcf15954	-0.02946154
89	0x3d033f3d	0.03204273
90	0x3c3f7b6f	0.011687144
91	0xbd746d39	-0.059674475
92	0xbdc828d8	-0.09773415
93	0x3db14d55	0.08657328
94	0xbdba4b29	-0.09096367
95	0x3d83844d	0.06421719
96	0xbdc493d0	-0.095985055
97	0x3ded5a32	0.11589469
98	0xbdba39c8	-0.09093052
99	0x3dbbb4ff	0.09165382
100	0xbd80d424	-0.062904626
101	0x3dd055a6	0.10172586
102	0x3d3db1c2	0.0463121
103	0xbd383e5e	-0.044981353
104	0x3d606a2a	0.054788746
105	0xbdc70c42	-0.09719135
106	0xbbddd5eb	-0.006769886
107	0x3c8c2b18	0.017110392
108	0xbd9a16b1	-0.07523859
109	0x3da40421	0.080086
110	0x3be17010	0.006879814
111	0x3a910638	0.0011064475
112	0xb9d54dd8	-0.00040684524
113	0xbd14263a	-0.03616927
114	0x3d474da2	0.04865802
115	0xbc0f2d6b	-0.008738856
116	0x3d178dcc	0.037000462
117	0xbbac779c	-0.005263282
118	0x3bfd7700	0.007735133
119	0x3d9e108b	0.07717999
120	0x3ad17835	0.0015981259
121	0xbd4bde73	-0.04977269
122	0xbd0f3271	-0.034960214
123	0xbd4236b7	-0.04741546
124	0x3d93fd66	0.07226066
125	0x3cd341ae	0.025788154
126	0xbdc30974	-0.095232874
127	0xbd8d4a2d	-0.068989135
128	0xbb688659	-0.0035480468
129	0x3d2bf0ab	0.041977566
130	0xbdd305aa	-0.10303815
131	0xbd0361f3	-0.032075834
132	0xbd7a734c	-0.061145112
133	0x3c852981	0.016255142
134	0x3d9c9623	0.07645824
135	0xbd428808	-0.04749301
136	0xbd4f98cf	-0.05068284
137	0xbd709d41	-0.05874372
138	0x3d7e3474	0.062061742
139	0x3d94cca2	0.07265593
140	0xbd9d6929	-0.07686073
141	0x3dc4861c	0.09595892
142	0x3d23a440	0.039951563
143	0xbca8a1d5	-0.02058498
144	0xbcb38fe3	-0.021919196
145	0xbd5002e1	-0.050783996
146	0x3d70439e	0.058658235
147	0xbd26e740	-0.04074788
148	0xbcfe5409	-0.03104593
149	0xbbbae2c4	-0.005703302
150	0xbd8ec7df	-0.06971716
151	0x3d7f9aa2	0.06240333
152	0xbd832e6b	-0.06405338
153	0xbd6d2fb6	-0.05790683
154	0x3d53c645	0.051702756
155	0xbb0b8fde	-0.0021295468
156	0x3db695ee	0.089153156
157	0x3dc042fc	0.09387776
158	0x3d0808be	0.033211462
159	0x3c71b878	0.014753453
160	0x3d3b1468	0.045673758
161	0x3da354bd	0.07975147
162	0xbdccf0e2	-0.10006882
163	0x3da2b890	0.07945359
164	0x3d8fbd6d	0.07018552
165	0xbd9ee265	-0.07758025
166	0xbd829f5a	-0.0637805
167	0xbd1913e8	-0.0373725
168	0xbcf61c46	-0.030042779
169	0x3d0202cf	0.03174096
170	0xbd8f2886	-0.06990151
171	0x3d86a76f	0.06574904
172	0x3b9d52a1	0.00480111
173	0xbcf3d426	-0.029764246
174	0xbd7c653c	-0.061619982
175	0x3d2485d2	0.040166683
176	0xbdc6563b	-0.09684416
177	0xbd05df02	-0.03268338
178	0xbda0528c	-0.078282446
179	0x3cac7511	0.021051915
180	0x3d4ed78b	0.050498527
181	0x3d4b3651	0.049612347
182	0x3c881f18	0.01661639
183	0xbd111c79	-0.035427544
184	0x3c2d6b10	0.010584608
185	0x3d1caf5e	0.03825318
186	0xbae7b2d0	-0.0017677192
187	0xbd771734	-0.060324863
188	0x3dbc0013	0.09179702
189	0x3d5b66a9	0.0535647
190	0x3d19ace2	0.03751839
191	0xbdcc5412	-0.09976973
192	0xbd31abdb	-0.043376785
193	0x3d4b9c04	0.049709335
194	0x3d1d64fb	0.03842638
195	0xbc29fb5a	-0.010374868
196	0x3d2fb771	0.042899553
197	0xbd6b7568	-0.057485014
198	0x3bfb1e3a	0.0076635154
199	0xbd8d4238	-0.06897396
200	0x3bc6466b	0.006050875
201	0x3db7bc8d	0.0897151
202	0xbda08d6e	-0.078394756
203	0x3d943a9e	0.07237743
204	0x3dbfe763	0.093703054
205	0xbd5aa472	-0.053379484
206	0x3ce7fa3c	0.028317563
207	0xbd8f99f4	-0.07011786
208	0xbd05e659	-0.03269038
209	0xbc89b49b	-0.016809752
210	0xbd6c8b91	-0.05775029
211	0xbd953c7b	-0.07286926
212	0x3d81ee97	0.063443355
213	0xbdc32d3c	-0.09530112
214	0x3d3577f0	0.044303834
215	0xbd7832cf	-0.06059533
216	0xbd27f574	-0.041005567
217	0x3daae571	0.08344544
218	0xbd821e87	-0.06353479
219	0xbce9ee92	-0.028556142
220	0xbdfe88aa	-0.1242841
221	0x3d220cd8	0.03956303
222	0x3db1b985	0.08677963
223	0xbda4485b	-0.08021613
224	0x3d353460	0.0442394
225	0xbd7a9dd4	-0.061185673
226	0x3da083ea	0.078376606
227	0xbdb9f901	-0.09080697
228	0xbd5fd8ed	-0.054650236
229	0xbbf54f1b	-0.0074862367
230	0xbd5d0d5e	-0.053967826
231	0x3d5eae05	0.054365177
232	0x3daedf61	0.085387
233	0x3d8fe387	0.07025819
234	0x3d387b1f	0.045039292
235	0x3d6e9afc	0.058253273
236	0x3d9d8006	0.07690434
237	0x3ccbbe6c	0.024871074
238	0xbd61bedf	-0.05511367
239	0xbd39364b	-0.045217793
240	0xbd847478	-0.06467527
241	0xbc618600	-0.013764858
242	0xbd4d3197	-0.05009612
243	0xbce95542	-0.028483037
244	0xbd9d84aa	-0.07691319
245	0xbd2254cc	-0.03963165
246	0xbdc6d777	-0.097090654
247	0x3c4091eb	0.01175354
248	0xbdfb1582	-0.12259962
249	0xbd333863	-0.043754946
250	0xbd986efc	-0.074430436
251	0x3a49e411	0.0007701526
252	0xbd29c5bf	-0.04144835
253	0xbd94d2c6	-0.07266764
254	0xbca752e5	-0.02042527
255	0x3d68d752	0.05684597

lstm.weight_hh_l1 f4 [400, 100]
0	0xbcf6529e	-0.030068692
1	0xbd26db95	-0.040736753
2	0x3cc3dfed	0.023910487
3	0xbd11e3fc	-0.035617813
4	0x3dc50873	0.09620752
5	0xbd8b1dbb	-0.0679278
6	0x3bb5a9dc	0.0055439305
7	0xbdb09047	-0.08621269
8	0xbd59c6ce	-0.05316811
9	0xbd35348f	-0.044239577
10	0xbd2f2eb8	-0.042769164
11	0x3d488f2e	0.04896467
12	0xbd2be04c	-0.041961953
13	0xbd7e4ef6	-0.06208702
14	0xbce0363c	-0.027369611
15	0xbd55d181	-0.05220175
16	0x3cb3565f	0.02189177
17	0x3dbcfb33	0.092276
18	0xbd9cb9b6	-0.07652609
19	0xbcb3d174	-0.021950461
20	0x3dbbb073	0.091645144
21	0xbd70247e	-0.05862855
22	0xbd8cef93	-0.06881633
23	0x3d2c111d	0.042008508
24	0xbd2a2daa	-0.041547455
25	0xbd8201b6	-0.063479826
26	0xbc7f7805	-0.01559258
27	0xbd50e882	-0.051002987
28	0x3b4607cb	0.0030217047
29	0xbdd03eb0	-0.10168207
30	0x3c16775a	0.009183729
31	0x3d6963bf	0.05697989
32	0x3c6439b9	0.013929778
33	0xbb2c8c94	-0.0026328908
34	0x3d49037e	0.049075596
35	0xbd066b77	-0.03281733
36	0xbd48cd7c	-0.04902409
37	0xbdcc378f	-0.099715345
38	0x3d47fdd0	0.04882604
39	0xbcae9b72	-0.021314356
40	0x3b68725a	0.003546855
41	0x3ddd1485	0.107949294
42	0xbd7d1ccc	-0.06179504
43	0xbd84f09c	-0.06491205
44	0x3d448c82	0.04798556
45	0x3c973037	0.018455608
46	0x3db59ef7	0.08868211
47	0x3da10b25	0.07863454
48	0x3d28a798	0.041175455
49	0x3db33a41	0.087513454
50	0xbd2eaac8	-0.04264334
51	0x3d64397b	0.05571888
52	0x3b79d6c2	0.003812239
53	0xbda0f1b3	-0.078586005
54	0xbd38929f	-0.045061704
55	0xbdd223b6	-0.102607176
56	0xbdc19901	-0.09453011
57	0xbd3a2f5b	-0.045455318
58	0xbca88a10	-0.020573646
59	0x3d80ba61	0.06285549
60	0x3d8ee61d	0.069774844
61	0xbd37fd4d	-0.0449193
62	0xbd94a24d	-0.07257519
63	0x3d08ac73	0.033367585
64	0x3caae5b7	0.02086149
65	0x3d49effc	0.049301133
66	0xbda7944c	-0.08182582
67	0xbcbe606d	-0.023239339
68	0xbdc89fb1	-0.09796084
69	0x3d80390a	0.06260879
70	0x3db7f135	0.089815535
71	0xbd64bb92	-0.055842943
72	0x3c9263e5	0.017869899
73	0xbc8e4982	-0.017369036
74	0xbc8b33bf	-0.016992448
75	0x3d44f0dc	0.048081264
76	0x3b5c4a6f	0.0033613702
77	0xbd20b6de	-0.039236896
78	0xbc6948bd	-0.014238534
79	0x3c56feca	0.01312227
80	0x3dc67d70	0.09691894
81	0x3cdc2bcb	0.02687635
82	0xbdad8309	-0.084722586
83	0x3d3e6864	0.046486273
84	0x3dac6c9f	0.08419155
85	0x3b4c35d2	0.003116001
86	0xbd0abac8	-0.033869535
87	0x3be419b8	0.0069610737
88	0xbd9414a1	-0.07230497
89	0x3d811275	0.063023485
90	0x3c9673e2	0.018365804
91	0x3d9968e0	0.074907064
92	0x3d975401	0.07389069
93	0xbad2f358	-0.0016094251
94	0xbc8adb4c	-0.016950272
95	0x3c39f2db	0.011349405
96	0x3d2a5cee	0.04159253
97	0x3cc34a38	0.023839101
98	0x3c6c9d29	0.014441767
99	0xbd1cd7cd	-0.03829174
100	0x3d34815c	0.04406868
101	0xbd8b196f	-0.067919604
102	0xbc1fc694	-0.009751935
103	0xbd783d3c	-0.060605273
104	0x3d906693	0.070508145
105	0xbd8edc04	-0.069755584
106	0x3d5c418d	0.05377345
107	0xbd2eda0e	-0.042688422
108	0x3c8a38ee	0.01687285
109	0x3d974a1c	0.07387182
110	0xbd2eaf34	-0.042647555
111	0x3d576046	0.052582048
112	0x3d9e72bc	0.077367276
113	0xbd7a1a7e	-0.06106042
114	0x3d931e58	0.07183522
115	0x3cc91613	0.024546659
116	0x3d09dfe3	0.03366078
117	0xbd26b47b	-0.040699463
118	0xbdc0b5f5	-0.094097055
119	0xbd8016c4	-0.06254342
120	0x3dc965f7	0.098339014
121	0x3d8ffdfe	0.07030867
122	0xbca00e0b	-0.019537946
123	0x3d616f12	0.055037566
124	0xbac835e6	-0.0015274852
125	0xbd1873df	-0.03721988
126	0xbd2ed758	-0.042685837
127	0x3d8fe790	0.07026589
128	0xbd5abfc1	-0.053405527
129	0xbcf81d80	-0.030287504
130	0x3d8d9f19	0.06915111
131	0x3d1dd88a	0.038536586
132	0x3c28ebb2	0.0103101
133	0xbcfb90ca	-0.03070869
134	0xbda84493	-0.082162045
135	0xbd7600ad	-0.06005924
136	0x3d1ca454	0.038242653
137	0xbdb7e2fa	-0.08978839
138	0x3cc5acb0	0.024130195
139	0xbdd612c3	-0.10452797
140	0xbd57a04c	-0.052643105
141	0x3dd07581	0.10178662
142	0x3c869ae3	0.016431278
143	0x3bdcbe4a	0.0067365514
144	0xbac8d59d	-0.0015322451
145	0xbd5badef	-0.053632673
146	0xbcd4ed04	-0.025991924
147	0x3d5319f9	0.05153844
148	0xbc717f7c	-0.014739867
149	0xbd8862a7	-0.066594414
150	0x3db09067	0.086212926
151	0xbd2c00f9	-0.041993115
152	0xbd9ef89a	-0.07762261
153	0xbd99d268	-0.07510835
154	0xbd9dd0a1	-0.077058084
155	0xbd0c5289	-0.0342584
156	0xbda65116	-0.08120935
157	0xbd1c0b26	-0.03809657
158	0xbd823fe4	-0.063598424
159	0xbd157b69	-0.036494646
160	0xbd190af9	-0.03736398
161	0x3d96b92d	0.07359538
162	0x3dcde371	0.10053147
163	0xbdc97090	-0.09835923
164	0x3d289543	0.041157972
165	0xbdafe9b6	-0.08589499
166	0xbcd50c13	-0.026006734
167	0x3daece74	0.085354716
168	0xba366a0f	-0.0006958553
169	0x3da96de3	0.08272912
170	0x3d44472b	0.047919434
171	0x3d1f771b	0.038931947
172	0x3b264ece	0.002537656
173	0xbdb1ed04	-0.08687785
174	0xbd45cc75	-0.04829069
175	0xbdd65dd0	-0.10467112
176	0x3cb52c9f	0.022116004
177	0xbd3f5edf	-0.046721336
178	0xbc069050	-0.008213118
179	0x3d9b317f	0.075778
180	0x3d7b355b	0.06133018
181	0xbdb5aa68	-0.08870393
182	0x3d6bea94	0.057596758
183	0x3cc59647	0.02411951
184	0x3d41526b	0.04719774
185	0x3d0d7434	0.034534648
186	0xbbc61c79	-0.0060458747
187	0x3c833d66	0.016020488
188	0x3d4d2f09	0.050093684
189	0x3db31980	0.08745098
190	0xbd176dee	-0.03697007
191	0x3d020751	0.03174526
192	0xbdb1dc41	-0.08684588
193	0x3c1f0d1e	0.009707717
194	0x3db4d28a	0.0882922
195	0xbd86d1e0	-0.06582999
196	0xbccd89b7	-0.025090082
197	0x3ba048ac	0.0048914757
198	0x3cfab4d6	0.030603807
199	0x3db78b35	0.089620985
200	0xbdd4d285	-0.10391716
201	0xbb078cfe	-0.0020683403
202	0xbdc43a2d	-0.09581409
203	0x3c9ea3df	0.01936525
204	0xbce6a7c0	-0.028156161
205	0x3cb4869b	0.022036841
206	0xbd4423c5	-0.047885675
207	0xbd9badee	-0.07601534
208	0x3dc8d3fb	0.09806057
209	0x3d653c88	0.05596593
210	0xbcfbf618	-0.030756995
211	0x3d50a224	0.05093588
212	0xbdd2e951	-0.10298408
213	0xbd8ad838	-0.06779522
214	0x3d1c95cb	0.03822879
215	0x3d63a4c4	0.055577055
216	0xbc1a9fa1	-0.009437473
217	0x3d82a1b5	0.063784994
218	0xbdb272ac	-0.08713278
219	0x3dbba303	0.091619514
220	0xbda287ab	-0.07936033
221	0xbce255b3	-0.027628755
222	0x3d9411c6	0.072299525
223	0x3d524675	0.051336724
224	0xbd3ce286	-0.046114467
225	0x3d96a179	0.07355017
226	0x3d064bb3	0.032787036
227	0x3be4b2c8	0.00697932
228	0xbc60c94d	-0.013719869
229	0xbd8accf2	-0.067773715
230	0x3d8d3b55	0.06896082
231	0xbd5f5e86	-0.054533504
232	0xbd1490dd	-0.036270965
233	0xbc6106bf	-0.013734519
234	0xbd6e52fb	-0.058184605
235	0xbd56964a	-0.05238942
236	0xbcff7aa9	-0.031186419
237	0x3dabc28d	0.08386717
238	0x3d5e0901	0.054207806
239	0xbc54dd73	-0.012992251
240	0x3c62b53b	0.013837154
241	0x3d3b2521	0.045689706
242	0x3a5d7ad9	0.00084487867
243	0xbda8730d	-0.08225069
244	0x3dd1d4b4	0.10245648
245	0x3da123a6	0.078681275
246	0x3d607671	0.054800455
247	0xbcc8e19b	-0.02452164
248	0xbd2881a4	-0.04113926
249	0xbd63769b	-0.055533033
250	0x3ae3da86	0.0017383851
251	0x3c688277	0.0141912615
252	0xbd801d3f	-0.06255578
253	0xbbd47294	-0.0064833853
254	0x3dd34318	0.103155315
255	0x3c1e94fc	0.009679075

lstm.bias_ih_l1 f4 [400]
0	0x3d40e4c1	0.047093157
1	0x3d4507f3	0.048103284
2	0x3cb8082a	0.02246483
3	0x3d035785	0.032065887
4	0x3db706d7	0.089368515
5	0x3d9304ef	0.071786754
6	0xbdaeed09	-0.085413046
7	0x3dae7bdb	0.08519717
8	0x3d24a378	0.04019496
9	0x3c125ac8	0.008932777
10	0x3bc50504	0.006012561
11	0x3dd8ee48	0.105923235
12	0x3d7e86a3	0.06214012
13	0xbdd02f77	-0.10165303
14	0xbc054eef	-0.008136495
15	0x3d68e687	0.056860473
16	0xbdb9983a	-0.09062238
17	0xbda68a2c	-0.08131823
18	0x3daeafa9	0.08529598
19	0xbc3a4318	-0.011368535
20	0x3c2a8ef0	0.0104100555
21	0x3d4bba9c	0.04973851
22	0xba7b66fb	-0.00095902354
23	0xbd1a33a5	-0.03764691
24	0x3d145536	0.036214076
25	0xbdb35511	-0.087564595
26	0x3da131c4	0.0787082
27	0xbd9e4cab	-0.07729467
28	0xbd854cf5	-0.06508819
29	0x3d4155d1	0.04720098
30	0xbc9e5726	-0.019328665
31	0xbd816daa	-0.06319745
32	0x3aba2aac	0.0014203391
33	0xbc11e68b	-0.008905063
34	0x3d6b5f90	0.057464182
35	0x3caecc84	0.021337755
36	0x3bf51dd7	0.007480364
37	0x3c8e488a	0.017368574
38	0xbdc78308	-0.09741789
39	0xbb88a1aa	-0.0041696625
40	0xbda90b3f	-0.08254098
41	0x3dcf546e	0.101235256
42	0x3db67739	0.08909459
43	0xbdb98300	-0.090581894
44	0xbce814eb	-0.028330287
45	0xbb298edf	-0.0025872511
46	0xbdd348bb	-0.103166066
47	0xbd067caa	-0.032833733
48	0x3dd09157	0.101839714
49	0xbc13b628	-0.009015597
50	0x3dd342da	0.10315485
51	0x3cfac0e0	0.030609548
52	0xbd8d6535	-0.06904069
53	0xbdaf3db4	-0.08556691
54	0xbd2fdf65	-0.042937655
55	0x3beeeca3	0.007291393
56	0xbcc82fac	-0.024436794
57	0x3dc801db	0.09765979
58	0x3db2c6f3	0.08729353
59	0x3d7d1ff7	0.061798062
60	0x3d651848	0.05593136
61	0xbb1d7c18	-0.0024030264
62	0xbdbaa883	-0.09114172
63	0xbb32ef74	-0.002730337
64	0x3d7ed24f	0.062212285
65	0x3d905ace	0.070485696
66	0x3cdcc2eb	0.026948413
67	0x3ce13a37	0.02749358
68	0x3ca4c0b0	0.020111412
69	0xbda939a0	-0.08262944
70	0x3ce55d4f	0.027998595
71	0x3d027d0f	0.031857546
72	0xbbda1cb8	-0.0066562556
73	0x3d73ed66	0.059552573
74	0x3d9b94a9	0.07596714
75	0xbd3f60c7	-0.046723153
76	0xbd6807a3	-0.056647908
77	0x3d8cff04	0.06884578
78	0x3d8d8ca1	0.069115885
79	0xbaea0f72	-0.0017857386
80	0x3d84a5c6	0.06476931
81	0xbd396f5f	-0.045272227
82	0xbd62aa52	-0.05533821
83	0x3cdc351d	0.026880795
84	0x3d802327	0.06256705
85	0xbc7f3fe4	-0.015579198
86	0xbd485817	-0.048912134
87	0xbd386f2a	-0.04502789
88	0x3d91cdcb	0.0711933
89	0x3cb8595a	0.022503544
90	0xbda5c96a	-0.08095057
91	0x3cf2aecd	0.029624367
92	0x3dad099b	0.08449098
93	0xbd28973d	-0.041159857
94	0xbd032259	-0.03201518
95	0x3c930f75	0.017951706
96	0xbc44a62c	-0.012002509
97	0xbd8624aa	-0.06549962
98	0x3d9146da	0.07093592
99	0xbd25dcbc	-0.04049371
100	0x3d16e49e	0.03683912
101	0x3d056102	0.032563217
102	0xbd94353a	-0.07236715
103	0x3dbeca1f	0.09315895
104	0xbd83f8dc	-0.064439505
105	0x3d3360de	0.04379355
106	0x3d6373a4	0.055530205
107	0xbd35345c	-0.044239387
108	0x3be5c450	0.0070119277
109	0x3dc1dd07	0.09465986
110	0x3d1a2d05	0.03764059
111	0xbcaa57da	-0.020793844
112	0x3db31c91	0.08745683
113	0xbc85b57c	-0.01632189
114	0x3b8a416c	0.0042192247
115	0xbc585317	-0.013203404
116	0xbda225c5	-0.0791736
117	0x3bfbbb9c	0.007682277
118	0xbd7657ac	-0.060142204
119	0x3d851890	0.064988256
120	0x3d6c76bb	0.057730418
121	0x3d97f48e	0.07419692
122	0x3d7cb2fb	0.061694127
123	0xbd8bd30b	-0.068273626
124	0x3db503d8	0.08838624
125	0xbdc5a63e	-0.09650849
126	0xbd864683	-0.06556418
127	0x3d28f3bd	0.041248072
128	0xbd1ede86	-0.038786434
129	0xbc9e6790	-0.019336492
130	0xbda367ff	-0.0797882
131	0x3d815f04	0.06316951
132	0x3dcfc0dd	0.101442076
133	0x3da14214	0.078739315
134	0xbd9ff80b	-0.07810982
135	0xbd49a277	-0.049227204
136	0xbd882032	-0.06646766
137	0xbc457746	-0.012052363
138	0xbd8405c7	-0.064464144
139	0x3cfa23a2	0.03053457
140	0xbd956503	-0.07294657
141	0x3d06e266	0.032930754
142	0xbd6f61e0	-0.05844295
143	0x3c9b6c01	0.018972399
144	0xbceb3179	-0.028710114
145	0x3d0ae861	0.03391302
146	0x3ca0e73b	0.01964151
147	0x3ba97125	0.0051709586
148	0x3d43884c	0.047737405
149	0xbdbfcd21	-0.09365297
150	0x3ca461e0	0.020066202
151	0xbcbca069	-0.023025708
152	0xbd8e37e5	-0.06944255
153	0x3da9b66e	0.08286749
154	0x3d5cd3b2	0.053912826
155	0x3d8bcab0	0.06825769
156	0xbd4a06a5	-0.049322743
157	0x3dc144a7	0.094369225
158	0xbc6f6b6b	-0.014613013
159	0x3c9959ae	0.01871952
160	0x3aa505ab	0.001259019
161	0xbc8a5302	-0.016885284
162	0x3db6eb59	0.08931608
163	0x3d271ebf	0.040800806
164	0xbdae0475	-0.08496944
165	0x3ce368da	0.027759958
166	0xbd61e9ab	-0.055154484
167	0x3cee2775	0.029071549
168	0xbd0e757c	-0.03478001
169	0xbbee3226	-0.0072691618
170	0x3ce25466	0.027628135
171	0xbd8d1ef4	-0.068906695
172	0xbd3e00d8	-0.046387523
173	0x3d961ce0	0.07329726
174	0xbdaf3948	-0.085558474
175	0xbd9c3dca	-0.07628973
176	0xbcc09647	-0.023509158
177	0x3d798a03	0.060922634
178	0xbdb6b5f5	-0.08921424
179	0x3da0f970	0.078600764
180	0xbd0313b5	-0.032001216
181	0x3cbb7a5b	0.022885492
182	0x3dad239a	0.08454056
183	0x3dd74f86	0.10513215
184	0x3dd91fea	0.1060179
185	0x3db94870	0.090470195
186	0x3c4e7560	0.012601227
187	0xbdb904e7	-0.09034138
188	0x3d9fb925	0.077989854
189	0xbda41abb	-0.08012911
190	0x3d622f74	0.055221036
191	0xbdc219bc	-0.09477565
192	0x3d90656e	0.07050596
193	0xbcc17eca	-0.023620028
194	0x3dae6165	0.0851467
195	0x3d874e22	0.066066995
196	0x3d8c1b97	0.068412
197	0xbd141bb5	-0.036159236
198	0x3b6e7e36	0.0036391146
199	0xbd198bf0	-0.03748697
200	0xbd89e697	-0.06733435
201	0xbd089043	-0.033340704
202	0xbd84e0bc	-0.06488177
203	0x3d1081fa	0.035280205
204	0x3d26501d	0.040603746
205	0x3bba8dd0	0.005693175
206	0x3cc6631d	0.024217183
207	0xbd2c05b8	-0.04199764
208	0xbda0c046	-0.07849173
209	0xbb6f3b30	-0.0036503784
210	0x3c7d4165	0.015457486
211	0x3d304a4c	0.043039605
212	0x3c20f64e	0.009824349
213	0xbda6ccd6	-0.08144538
214	0x3bf69661	0.007525251
215	0x3d4e1694	0.0503145
216	0xbcf45217	-0.0298243
217	0x3d731701	0.05934811
218	0x3d9e5c9a	0.07732506
219	0xbdc56ac8	-0.096395075
220	0x3d9bf83e	0.07615708
221	0x3c0c617d	0.008568165
222	0xbd8efed1	-0.06982196
223	0xbd67d1a3	-0.05659641
224	0x3d0f8a70	0.035044134
225	0xbd8db342	-0.06918956
226	0xbd86e654	-0.065869
227	0x3d83d930	0.064379096
228	0x3d2f2b64	0.04276599
229	0xbdb7a614	-0.08967224
230	0xbd838290	-0.06421387
231	0x3d96d3c1	0.073646076
232	0xbd6fd61e	-0.058553807
233	0x3cc50539	0.024050342
234	0x3d195d54	0.03744252
235	0xbd470d9d	-0.048596967
236	0xbd6e70bf	-0.05821299
237	0x3b170084	0.0023041079
238	0x3dc94075	0.09826747
239	0xbba95820	-0.005167976
240	0xbcb9abda	-0.022664953
241	0x3d69c33c	0.057070956
242	0xbd92a045	-0.07159475
243	0x3ca551b3	0.020180559
244	0xbcfa1d0c	-0.030531429
245	0xbc41fdc7	-0.01184029
246	0xbc8f341f	-0.017480908
247	0x3bf8d0f0	0.0075932667
248	0x3b2c34fe	0.0026276703
249	0xbc5b818d	-0.0133975865
250	0x3bf620d7	0.007511239
251	0x3d5134a5	0.051075596
252	0x3d04cf54	0.032424286
253	0x3d94afa1	0.07260061
254	0x3d30f1d9	0.043199394
255	0xbbf0dc17	-0.0073504555
