tcs_lstm_model.pth (torch, 216269 bytes, 15 tensors)

lstm.weight_ih_l0 f4 [200, 1]
000000 1d 94 1e 3e fe d8 3a bd 91 2d c8 3d a8 39 60 3e
       0.15486188 -0.045617096 0.09774316 0.21896994
000010 e2 34 f6 bb b3 c0 05 3e 3f c9 54 3e 5a 37 52 3e
       -0.0075136283 0.1306179 0.20779894 0.20528927
000020 35 c6 5d 3e 3a 02 93 3d d3 c3 a2 3c 2e 39 09 3e
       0.21657641 0.07178159 0.019868767 0.13400719
000030 c5 73 1a 3e 01 2b 18 3e ea d0 3f 3e f0 ad e4 3d
       0.15083225 0.14860155 0.18732038 0.111659884
000040 95 8f b9 3d 17 33 29 be e6 32 4e 3e 72 e7 80 3e
       0.09060589 -0.16523395 0.20136604 0.2517658
000050 88 4e 2c 3e a6 eb 96 3d 93 28 45 3c d0 47 43 be
       0.16826832 0.07369165 0.012033599 -0.19070363
000060 ec ae 13 3e 2b 78 a6 3e 6d 38 b2 bb a2 2a 7a be
       0.14422196 0.32513556 -0.0054388554 -0.24430326
000070 9d a4 d0 3d 7f d5 f6 3d f4 6e 41 bd 6c 73 ff 3a
       0.101876475 0.1205244 -0.047224954 0.0019489354
000080 26 1e 07 3e 8b 50 40 bd 8f f0 6e 3e 02 14 a9 3c
       0.13195094 -0.04695181 0.23333953 0.020639423
000090 08 fb dd 3d 2f 64 dc 3c c3 3a dd bd 7c 46 c8 3d
       0.10838896 0.02690324 -0.108022235 0.09779069
0000a0 79 dc bb 3d 78 4d e8 3c 89 0e 54 be 60 fe 99 3c
       0.09172911 0.028357252 -0.2070867 0.018798053
0000b0 65 ba ad 3c d1 04 f0 bc d1 f6 82 bd 0f a8 a1 3d
       0.021207044 -0.029299172 -0.06394733 0.07893383
0000c0 02 13 01 3e 28 60 75 3d 60 15 61 3d c3 53 c9 bd
       0.12604907 0.059906155 0.054952025 -0.098304294
0000d0 a0 02 25 3e 29 2a 5b 3d 1d 18 cd bd 99 20 8c bc
       0.16114283 0.053507004 -0.10014365 -0.017105388
0000e0 72 ef 85 3d 81 b9 f3 3c 91 70 de 3d 6f 05 4c 3e
       0.06539811 0.029751541 0.10861314 0.19923948
0000f0 f2 ff 2f bd a2 eb 57 3e b0 0e 1b 3e 6b 45 68 3c
       -0.042968698 0.2108598 0.15142322 0.014176707
000100 2d a2 34 3e 48 3b 1d 3e a4 f2 62 3e 89 bd de 3d
       0.1763999 0.15354645 0.22162873 0.10875995
000110 ae 23 a1 bc 90 23 bb 3e 05 b7 be bd 0f da 6b 3e
       -0.019670334 0.3655057 -0.09312252 0.23032402
000120 4d d0 cc 3c 05 45 88 bd 19 83 2c 3e bc 86 2d 3e
       0.02500167 -0.066537894 0.16846885 0.16945928
000130 de 06 f4 3d f0 2b 99 be ef 22 e0 3d b6 8c c7 3d
       0.11915372 -0.29916334 0.10944163 0.09743635
000140 f2 01 7f bd a3 2b 28 3d c4 23 62 3d fa 6f cc bd
       -0.062257715 0.04105724 0.05520989 -0.09982295
000150 79 47 fb 3d 8e 77 3c 3d 84 1b ba 3d 66 6f 6f 3e
       0.12269492 0.046012454 0.090872794 0.23382339
000160 3b 7d d5 bd f8 ba c7 3c 17 1e 83 3e a3 7e 0f bc
       -0.104242764 0.024381146 0.25608894 -0.00875822
000170 62 cf a2 bd bb c8 53 3d 1c 73 ee 3c 14 64 89 3d
       -0.079497114 0.051705103 0.029107623 0.067085415
000180 63 7c 0a be a4 0c 3d bd 6c 87 a8 3d 2c c7 cb bd
       -0.13524012 -0.046154633 0.08228955 -0.099500984
000190 cd f7 36 3d 96 18 38 be 91 a7 76 3e 13 bb e3 bd
       0.044669915 -0.17978129 0.24087359 -0.11119666
0001a0 77 a5 6c be 99 bb 1a 3e 95 1d 3c be f5 2d 7d 3e
       -0.23109995 0.15110625 -0.1837066 0.24724562
0001b0 1d f9 63 3e 69 78 d3 3b f6 e6 63 3d b8 f0 91 be
       0.22262998 0.006453563 0.055640183 -0.28503966
0001c0 40 d5 b1 3d 41 bf aa 3b ef 05 2e be 45 82 28 be
       0.08683252 0.0052107875 -0.16994451 -0.16455944
0001d0 14 98 63 3e fe 30 f7 3d 92 41 ed 3d 2d 25 7f 3e
       0.22225982 0.120698914 0.11584772 0.24916525
0001e0 e9 2c f8 bd 29 d2 5e 3e 29 7e 8d 3e 5c 13 83 3e
       -0.12117941 0.21759857 0.27635315 0.25600708
0001f0 03 31 29 3e ef 73 28 be 60 84 84 3e b1 50 3e be
       0.16522603 -0.16450475 0.25882244 -0.18585469
000200 e7 4b 84 bd 4e 87 2c be 36 26 6a 3e 5a c0 0e 3e
       -0.0645979 -0.1684849 0.22866139 0.13940564
000210 c8 85 66 3e a4 54 7d be f5 b0 d3 ba 19 f8 85 3d
       0.22511971 -0.24739319 -0.001615076 0.065414615
000220 58 2b 50 bd 93 27 11 3e 3f d3 19 3d 36 2d 73 3e
       -0.050822586 0.14175253 0.037554976 0.23747715
000230 fd 88 1d be 76 0a 6b be 2d f0 86 3e 9e ba 85 3e
       -0.15384288 -0.2295321 0.26355115 0.2611894
000240 51 f4 24 be ce 86 72 be 8e 43 5b 3e 5a d2 64 3e
       -0.16108824 -0.23684236 0.21412489 0.22345868
000250 c8 9c 24 3e 68 33 49 3e 17 81 9a bc d0 a8 16 be
       0.16075432 0.19648516 -0.018860383 -0.14712834
000260 64 9d bc 3d e1 61 22 3e 70 54 80 bd 89 09 d2 3d
       0.092097074 0.1585765 -0.06266105 0.10255725
000270 76 ec 11 3e ff 8a 61 3d 50 b3 f5 3c 22 9f c6 3d
       0.14250359 0.055064198 0.02999273 0.09698321
000280 2f 0b 53 3d 6b a8 17 3e bf 72 58 3e f8 78 1f 3d
       0.051524337 0.1481034 0.21137522 0.038933724
000290 87 c0 97 bc 58 87 84 3e cf 35 ed 3d e2 6f d1 bd
       -0.018524421 0.2588451 0.11582529 -0.10226418
0002a0 52 bf 95 3d e5 47 ee 3e d5 f1 24 3d 5e 38 85 3e
       0.07311882 0.46539226 0.04026969 0.26019567
0002b0 99 0b 63 3a 46 27 65 be 0b f0 30 3e 01 c2 33 3e
       0.0008661091 -0.22378263 0.17279069 0.17554475
0002c0 1b b4 54 3e 62 d3 2b be a5 0d 75 3e bc 7f 16 3e
       0.2077183 -0.16779855 0.23930986 0.14697164
0002d0 cf 9b a4 bd a6 9c 8d 3d b9 29 a6 3d a1 9c 58 bd
       -0.08037531 0.06914644 0.08113427 -0.052883748
0002e0 c2 17 b1 bb f8 d6 18 3e 4f 10 bb 3d 05 9d 5d 3e
       -0.0054044435 0.14925754 0.0913397 0.2164193
0002f0 0b 8b 5d bd e8 c0 71 bd 56 0b e6 3d c1 b5 80 3e
       -0.05408768 -0.05902186 0.11232631 0.25138667
000300 8e 17 c8 bd 17 be 80 3e 74 56 06 3e f5 62 cf 3b
       -0.09770118 0.25145027 0.13118917 0.0063289353
000310 48 4a 04 be 6b 72 fa 3d 70 82 21 3e 3e 06 16 3e
       -0.12918961 0.12228855 0.15772414 0.14650819

lstm.weight_hh_l0 f4 [200, 50]
000000 9b f4 98 bd aa c2 1f be 70 ba b3 bd 53 4c 3c 3b
       -0.0746853 -0.15601602 -0.087757945 0.0028732016
000010 4e 7d 28 bd a3 8c a2 bd 31 83 fc 3d dc a2 2e 3d
       -0.041135125 -0.079369806 0.1232971 0.042635784
000020 ef 44 e2 bd 04 29 ef 3d ea 19 36 3d 25 d5 95 bd
       -0.11048304 0.11677745 0.044458307 -0.07316045
000030 31 cd 17 3d c2 5b 58 bc f4 44 ab bd 6d 7f df 3d
       0.03706092 -0.0132054705 -0.08362761 0.109129764
000040 c0 09 ce 3c f5 91 37 3d 14 da f2 bd ec 31 61 bd
       0.025151134 0.04481693 -0.11858001 -0.05497925
000050 cd 64 da 3d 3b 46 bf bd 60 9a 11 be 75 0d 4b bd
       0.106637575 -0.09339567 -0.14219046 -0.04957338
000060 45 a5 03 be 22 31 ff 3c a2 25 73 bd 11 b3 a1 bd
       -0.12856014 0.031151358 -0.05936206 -0.07895482
000070 31 91 ef 3d 83 a1 b7 3d f8 a2 17 3e 5e d6 7c 3d
       0.11697615 0.08966353 0.14808261 0.061727874
000080 d0 d9 b8 bd 46 c5 81 3c ee 89 0f 3e 34 46 8a bd
       -0.090259194 0.015841138 0.1401746 -0.067516714
000090 e7 6e e2 3d a8 37 a5 bd 07 76 1d 3e 4a 48 d6 bd
       0.11056309 -0.08067256 0.15377055 -0.10463007
0000a0 87 71 00 bc 4a a1 d9 bc b8 6d e8 bc a7 bf 8a 3d
       -0.007839567 -0.026566166 -0.02837263 0.06774836
0000b0 55 85 17 3e bc 5b ec 3d bb a9 df bd bb 8f fe 3d
       0.14796956 0.115409344 -0.109210454 0.12429758
0000c0 9a 67 86 bd 25 d9 e8 3d 24 34 af bd 59 98 59 3d
       -0.06562729 0.11369542 -0.08554867 0.053123806
0000d0 19 74 e9 bd df 78 a7 3d 6d 8e 55 3d c3 ad a2 bd
       -0.11399097 0.08177351 0.05213778 -0.07943299
0000e0 0e 80 25 bd 52 5f 25 be 6c b5 83 bd 42 7c d2 bd
       -0.040405326 -0.16149643 -0.06431088 -0.102776065
0000f0 bb fd e5 3d 1f ea 86 3d 48 ff ac 3d 71 8c 4c 3d
       0.11230036 0.06587624 0.084471285 0.049938623
000100 48 3b c7 3c 1e 84 04 3e 94 63 ef 3c 46 a5 ba 3c
       0.02432026 0.12941024 0.029222287 0.022783887
000110 d9 8e 9f bc 57 67 9a 3d db f7 3f 3e 58 67 ba bd
       -0.019477295 0.07539242 0.18746893 -0.091017425
000120 c5 a4 8f 3c 2d 5d 02 3d 92 07 26 bb 43 ee 31 bd
       0.017534623 0.03182714 -0.0025334102 -0.043440115
000130 ea 26 46 3d 09 50 b5 3d 13 f9 f8 3d 06 8b 32 3d
       0.048376955 0.08853156 0.12156882 0.043589614
000140 0f 99 6c bd 0f d6 ea 3c fb a7 c3 bb 38 d0 04 3d
       -0.057763156 0.028666524 -0.0059709526 0.032425135
000150 4f cc 88 bb c6 e9 c2 bd 6d ce d3 3c 94 d2 d5 3d
       -0.004174746 -0.09517245 0.025855267 0.10440555
000160 3e 75 cf bd 46 55 0f be 9f 98 bd bb 42 2a 15 3e
       -0.10129784 -0.13997373 -0.005786016 0.14566901
000170 82 c8 ed 3d 88 52 4d bd 45 c8 cf 3d 25 83 04 be
       0.116105095 -0.050127536 0.1014562 -0.12940653
000180 fb 44 2f be 27 dd 3e be 33 96 7e bc e3 9d 33 be
       -0.17116158 -0.1863905 -0.01553874 -0.17540698
000190 68 a1 ba bc de 7f aa 3d 7c 6c ad 3c 4b ca 84 bd
       -0.022782043 0.0832517 0.021169893 -0.06483897
0001a0 30 6b cf bd e1 b9 34 3e 1f 19 b9 bd 78 57 06 3e
       -0.10127866 0.17649032 -0.090379946 0.13119304
0001b0 67 a7 33 3e 78 b0 aa 3d 35 30 14 be 5b 55 5e 3d
       0.17544328 0.0833444 -0.14471515 0.05428062
0001c0 e9 50 62 3c e3 f4 30 be 8e 53 66 bd d6 4f 0f bd
       0.013813236 -0.17280917 -0.056232028 -0.034988247
0001d0 ce 96 2c bd 6c cb 00 be 87 e5 12 3e 4f 89 22 3e
       -0.042136006 -0.125776 0.1434537 0.15872692
0001e0 93 95 4e be 9d 9e 01 bd 05 a9 ef bc e6 f3 40 bd
       -0.20174246 -0.031645406 -0.0292554 -0.0471076
0001f0 c3 d1 a9 bc eb 07 2b 3c 2a 3b 88 bc 9e 63 27 3e
       -0.020729905 0.0104388995 -0.016629774 0.16346595
000200 ed 4a 0e 3d a1 ba 1f 3c 02 c8 d3 3c 3d 89 10 3e
       0.034739424 0.009749086 0.025852207 0.14114852
000210 ee fe 57 3e 80 fe fb bb dc a8 55 bd 82 04 8e 3d
       0.21093342 -0.007690251 -0.05216299 0.069344535
000220 b8 92 76 3d ee e6 c7 3d 75 2a 35 3d b2 0a 63 3a
       0.060198516 0.09760843 0.044229943 0.00086609565
000230 8f 1b 02 3c e4 71 86 3d d2 ab 3e be cd 77 f4 3c
       0.007941141 0.06564692 -0.18620232 0.029842282
000240 7d ca 03 3d 60 8f d2 bd 8c e3 f0 bd 33 2d 53 3d
       0.03217553 -0.10281253 -0.11762151 0.051556777
000250 e9 bd 22 3e 37 80 8b 3d 25 b9 fb 3c d3 84 20 be
       0.15892757 0.068115644 0.030727932 -0.15675668
000260 19 42 94 bd 1a cf 1d bd 66 f3 40 be cc b5 08 3e
       -0.072391696 -0.038527586 -0.18842849 0.133506
000270 21 2a fd bd 11 8a 95 bd d4 ef a0 bd 46 1b 88 bd
       -0.12361551 -0.07301725 -0.078582436 -0.06645827
000280 7b 67 3c 3d 3a 31 e8 3d 88 2f f2 bc 64 d6 e7 bd
       0.045997124 0.11337514 -0.02956368 -0.11320189
000290 8f 94 a0 3d 75 29 db 3c 4e ee a0 3b 16 3b b7 bd
       0.07840835 0.026753167 0.0049112206 -0.089468166
0002a0 29 7d 15 3d bd c2 ed 3b f9 35 52 3b 5c 3b c9 bd
       0.036496315 0.0072558806 0.0032075627 -0.09825775
0002b0 0a 60 49 3d da 91 8c bd 66 89 f8 bd a2 49 3c 3d
       0.049163856 -0.068637565 -0.12135582 0.04596866
0002c0 10 22 00 3e 0d f5 f6 3d 68 87 02 be e0 7c e0 3d
       0.12512994 0.120584585 -0.12746966 0.10961318
0002d0 ee 7f 33 bb 49 58 c0 3d f7 7a d2 bd 84 0e 1d 3c
       -0.0027389484 0.09391839 -0.1027736 0.00958598
0002e0 41 b0 0c 3d 7a 16 17 3c 7c 55 4d 3d 30 fd ed bd
       0.034347776 0.009221667 0.050130352 -0.11620557
0002f0 86 22 dc 3d 44 50 8a 3d 42 b6 ff bb 72 7b c7 bd
       0.10748772 0.06753591 -0.0078037092 -0.09740342
000300 fc a9 0f 3e 19 23 11 3d 50 ad e4 3d 16 77 1a 3d
       0.14029688 0.035433862 0.11165869 0.037711225
000310 f2 e5 1e 3d 0c d9 33 3e d4 88 02 be 9e 59 0c be
       0.03879351 0.17563266 -0.12747508 -0.13706061
000320 c2 f2 fa bc dd d2 32 3b d3 1e 00 bc 02 48 fc bd
       -0.030633334 0.002728633 -0.007819849 -0.12318422
000330 c9 b9 2e 3d e4 26 92 bd d4 b3 20 be f6 4c f6 3d
       0.042657647 -0.07136324 -0.15693599 0.12026398
000340 a4 8a 80 bd 5d 85 0b bd 21 84 b6 bd d2 90 1c be
       -0.062764436 -0.034062732 -0.0891192 -0.1528962
000350 54 ec de 3d 03 bb 95 bd 70 96 fa bc 0e 20 13 3c
       0.1088492 -0.0731106 -0.030589312 0.00897981
000360 d0 8f 15 bd d8 d4 61 3c ae 2f 36 3e ec 5b e7 3d
       -0.036514103 0.013783656 0.17791626 0.112968296
000370 af e4 69 3d 4a 33 cd 3c 90 ce 83 bd 7a c6 49 be
       0.057102855 0.02504887 -0.06435883 -0.19704619
000380 4d c7 8d 3d ad b5 08 be b2 73 be 3d fb 86 61 3e
       0.06922779 -0.13350554 0.09299411 0.22024147
000390 85 e6 63 be 18 ca f6 bc 5e 2f 83 bd f0 25 a1 bd
       -0.22255905 -0.030125663 -0.06405519 -0.07868564
0003a0 ea fc 5a bd d8 41 cd 3d 74 9b a9 bd e4 1e f1 3c
       -0.053463854 0.10022324 -0.082816035 0.029433675
0003b0 52 1c 83 bd 0a 4e e1 3d 8c 14 8e bd ce 86 92 3c
       -0.06401886 0.11001213 -0.06937513 0.017886546
0003c0 e3 7f 1a be d9 c7 5f bd f0 39 ca bd 58 e3 00 3d
       -0.15087847 -0.05463395 -0.09874332 0.031466812
0003d0 d0 30 e9 3c 89 1e 81 3d 87 1e 6b bc e5 fd 7b bd
       0.028465658 0.06304652 -0.01435054 -0.06152143
0003e0 66 6f 85 3d 66 9e 61 3d a1 0a d1 3d 6b 03 03 be
       0.06515388 0.0550827 0.102071054 -0.12794273
0003f0 d8 ad 4b 3e 3b 1d ad 3d d8 b7 9e 3d 53 4e 07 3d
       0.19890535 0.08452841 0.07749909 0.03303368

lstm.bias_ih_l0 f4 [200]
000000 47 3b db bd 13 4d 50 3c 4c 13 8a bc b6 02 0a 3d
       -0.10704666 0.012713688 -0.016854905 0.03369399
000010 f6 76 09 3d 29 2f 54 3d d6 82 ba bd d1 34 b6 3c
       0.033560716 0.051802788 -0.09106986 0.022241982
000020 de 4e aa bd 3e 70 ad 3d 60 95 b6 3c cd 48 6b 3d
       -0.08315824 0.08468674 0.022288024 0.057442475
000030 82 5b fd 3d 8e c3 ae bd bb 5a e4 bd 94 a5 b7 bd
       0.12370969 -0.08533393 -0.11150118 -0.089671284
000040 42 77 38 bd fa de 03 3e 07 80 b5 bb 2c 1a 95 bd
       -0.045035608 0.12878028 -0.0055389437 -0.072803825
000050 01 65 bb 3d f4 dd aa bd 5f 4a be 3d c0 f0 a7 3d
       0.09150124 -0.083431154 0.09291529 0.08200216
000060 0c c1 7c bd f3 56 9a bd a1 1d 39 bd 64 ab 0c bd
       -0.06170754 -0.075361155 -0.045194272 -0.03434314
000070 7e 9c b7 3d ac a4 be bd 1b fb 8e 3d e1 d7 27 3d
       0.089653954 -0.093087524 0.06981488 0.040977363
000080 31 75 a0 3d 00 38 ae 3c 89 6f a2 3d 7b 38 8f 3d
       0.078348525 0.021266937 0.0793143 0.06993195
000090 1f 8d a4 3d 80 bb dc 3c 9f 95 a6 bd 79 89 cb 3d
       0.08034729 0.026944876 -0.08134007 0.0993833
0000a0 d3 62 88 3d a0 6f 05 3d 7d ba f1 3d 86 b5 df 3d
       0.06659474 0.032577157 0.11803148 0.10923295
0000b0 5b c6 8c 3b 0a 07 b9 3d 8b f1 ed bb 53 c3 5f bd
       0.0042961068 0.09034546 -0.00726146 -0.054629635
0000c0 d5 99 d7 bd c3 86 22 3e b6 7b ef 3b 95 4f 84 3d
       -0.10527388 0.1587172 0.0073084487 0.064604916
0000d0 84 d2 3d 3e e6 0e 11 bd c4 06 55 bc a8 e1 9a bd
       0.18537337 -0.0354146 -0.013002101 -0.07562572
0000e0 35 0b ea bd e5 78 98 bd 58 08 e4 3c d2 b9 57 bc
       -0.11427919 -0.07444934 0.02783601 -0.013166862
0000f0 5d d6 d4 bd 9d e4 1f 3d b3 97 69 3d 80 33 16 bd
       -0.10392449 0.039036382 0.057029437 -0.036670208
000100 48 77 2b 39 ae c4 5e 3d 9a d8 a4 3d f8 36 1f bc
       0.00016352267 0.054386787 0.08049126 -0.009717695
000110 aa 34 fc 3a 2e b4 d9 bd eb 96 ac bc e4 87 f4 bc
       0.0019241769 -0.1063007 -0.021068057 -0.029849954
000120 b0 e2 1e 3d e6 1b 4a 3b bb 0e 9a 3d 9e 2e 92 3d
       0.038790405 0.0030839383 0.07522341 0.07137798
000130 ff fb c3 3c 0f 68 0a 3e 11 e1 9f bb 8b fc 6a 3d
       0.023923872 0.13516258 -0.004879125 0.05736975
000140 2b 8c 01 be 75 2d f1 bd d1 2d c2 3d 9f 70 66 3d
       -0.12651126 -0.11776248 0.09481395 0.056259748
000150 59 e7 cd bd 47 17 aa bd 5b 81 09 bc 5b a2 ae 3d
       -0.10053892 -0.08305221 -0.008392657 0.085270606
000160 7f 4e ad bd da 3c e6 3d 84 f3 81 3d bf 67 43 3d
       -0.084622376 0.11242075 0.06345275 0.04770636
000170 0c 6e 53 bb 41 d8 17 bc ee 58 b6 bd c3 83 5f bd
       -0.0032261638 -0.009267868 -0.08903681 -0.054569017
000180 66 b6 3f 3d 73 31 db bd 50 36 d1 bd c1 a2 01 3e
       0.046804808 -0.10702791 -0.102154374 0.12659742
000190 d9 3a a9 3d 5d b3 4e 3d 66 11 9c 3c 33 41 cd bc
       0.082631774 0.050464023 0.019051265 -0.025055503
0001a0 c7 27 72 3d a8 80 10 3c 15 59 f9 bd 9a 29 ea 3d
       0.059119966 0.008819737 -0.12175194 0.11433716
0001b0 bb c8 a3 3d a0 da 50 3c a8 9c 0b 3b 85 31 0b 3e
       0.07997271 0.012747437 0.0021303091 0.13593109
0001c0 23 d2 64 3d 0a f8 ec bd 02 53 b9 bc 39 ce aa bb
       0.055864464 -0.11570747 -0.022622589 -0.005212572
0001d0 86 8b a2 bd f4 20 af bd 02 59 67 3d 56 43 73 bd
       -0.07936768 -0.08551207 0.05648137 -0.05939039
0001e0 a7 26 04 3e c3 4c 2a 3d 89 cf 84 bc a8 5c c8 bd
       0.1290537 0.041577112 -0.016212242 -0.09783298
0001f0 44 b0 57 3c b4 b5 ca bd bd 4c 8c bc b9 a4 ff 3d
       0.013164584 -0.09897938 -0.017126435 0.1248259
000200 8b cc 9c 3d ff a9 7e bd 3d 3d 22 3d 4c 12 49 bd
       0.07656201 -0.06217384 0.039609183 -0.049089715
000210 28 91 ea 3d d2 ce c2 3c 92 43 a4 bd 27 0a af 3d
       0.114534676 0.02378026 -0.080207005 0.08546858
000220 f8 d3 1b 3c 20 11 43 3c b4 ed 60 bd 6d 58 fa bd
       0.0095109865 0.011905938 -0.05491419 -0.12223897
000230 8e 71 a2 bd 3b 7c 80 bd 56 b8 b8 3c 65 f2 ed 3d
       -0.07931815 -0.06273695 0.022548836 0.11618499
000240 97 59 08 bd 62 0e cf bb 73 88 84 bd 86 cb 1a bd
       -0.033288565 -0.0063188532 -0.06471338 -0.03779175
000250 af f7 c1 3c 67 16 b4 bd 6c 27 8d 3d ce 48 d0 3d
       0.023677675 -0.087933354 0.06892285 0.101701364
000260 72 67 fd 3d 97 1d 45 3d bd 1f df ba eb 61 1e bd
       0.12373246 0.048123922 -0.0017023009 -0.0386676
000270 30 f9 1f 3d 3f 8f 51 bd 73 df b3 3d 36 a9 cd bd
       0.039056003 -0.051162 0.08782854 -0.1004204
000280 ae 8a 0e be 1b b3 1b 3d 3c 02 fe 3d a1 46 5c 3d
       -0.1392009 0.038012605 0.1240277 0.053778294
000290 d2 68 04 bd b7 eb 43 3d a2 39 89 3d 2c 19 68 3c
       -0.032326527 0.047832217 0.06700446 0.014166158
0002a0 f1 7a 8a 3d 6b 2f 71 bd 18 6d 97 3c f7 1c 1d 3c
       0.067617305 -0.058883112 0.018484637 0.009589425
0002b0 77 90 24 3e c6 7a 23 3e f2 38 81 bd 79 e4 73 3b
       0.16070734 0.15964803 -0.063096896 0.0037215038
0002c0 8e 8d be 3d 0d 95 c6 3d d7 a5 12 bd 56 dc 17 3e
       0.09304343 0.09696398 -0.03580269 0.14830145
0002d0 6d 83 e0 bd 76 7b e3 bd 4e 3a 11 bd eb 75 84 bd
       -0.109625675 -0.11107533 -0.035455994 -0.064678036
0002e0 af 26 a1 3d 4e 3a 9d bc 4e 8f e4 bd e8 68 ce bd
       0.078687064 -0.01919284 -0.11160146 -0.10078603
0002f0 dd 6a 3e bd bf cc 19 3e 6f 42 bb 3d 1e 7f a7 bd
       -0.04648863 0.1501951 0.091435306 -0.081785426
000300 f3 db c7 bd e8 d7 00 be 54 3d 4c 3c b4 bb 38 3e
       -0.09758749 -0.12582362 0.012465794 0.18040353
000310 ca e0 85 bd 7b 76 0f 3e 8c 8b 01 bd 04 a2 d6 3b
       -0.06537016 0.1401004 -0.031627223 0.0065500755

lstm.bias_hh_l0 f4 [200]
000000 87 32 ec bd c2 43 ab bc ad 33 0e bd e0 f1 0c bd
       -0.11533075 -0.020906333 -0.03471725 -0.034410357
000010 68 ed 0e 3e 3e 27 8d 3d 1c 65 9f bd a9 82 c5 bd
       0.13957751 0.068922505 -0.07782957 -0.09644062
000020 43 75 1b bd ac 98 7c 3c b7 f2 89 bb fd f7 6b 3d
       -0.037953626 0.015417259 -0.004209842 0.057609547
000030 c6 a4 a7 3d d0 ce e3 bd e8 f6 6e bd 76 1c 01 3e
       0.08185725 -0.11123431 -0.058340937 0.12608513
000040 6a c1 73 3d ab 0c b1 3d a5 86 59 3d 93 ae 7b 3d
       0.059510626 0.08644994 0.053106923 0.061445784
000050 a1 c1 46 3d 63 b9 10 3d ee b8 08 3d 3d ec 0a bd
       0.048524503 0.03533305 0.033379488 -0.0339167
000060 3c 99 06 bd 13 fc 18 3d ee bb 2a 3e d2 2b 9f 3b
       -0.03286098 0.03734977 0.16673252 0.0048575187
000070 ac a0 c1 3d 9e 55 aa 3c 62 a6 c9 3c 5a 57 f0 3d
       0.09454474 0.020792779 0.02461547 0.11735411
000080 9b f4 8c 3d 56 eb 91 3d c7 e7 f0 bd 70 15 43 3d
       0.06882592 0.07124965 -0.11762958 0.047627866
000090 83 a2 b1 39 80 bf 73 bd 8a d1 15 3b 5c 48 78 3d
       0.00033881151 -0.0595088 0.002286049 0.060615882
0000a0 07 31 e4 bd f8 f8 1f 3e 08 8a 06 3e aa c3 ec bd
       -0.11142164 0.15622318 0.13138592 -0.115607575
0000b0 68 b5 e3 bc cf 33 cc 3d 51 79 17 3d 29 07 2b bd
       -0.027796462 0.09970819 0.03698093 -0.041754875
0000c0 40 c9 1a 3c 76 5d c0 bd 5f 42 95 bc f8 2c e4 bd
       0.009447396 -0.09392826 -0.018220125 -0.111413896
0000d0 e8 9e ca bb 56 82 ac bc 66 4a 98 3d 7c 4e b2 3d
       -0.006183494 -0.021058243 0.074360654 0.08706376
0000e0 15 c0 f4 bd 72 1a 3e bc 38 d9 98 bd b3 60 3b 3d
       -0.11950699 -0.011602985 -0.07463306 0.045746516
0000f0 01 62 a5 bd d9 49 5a bd f9 02 9e bc 72 42 dc 3d
       -0.080753334 -0.053293083 -0.019288527 0.10754861
000100 a4 19 95 bd 0d 2f bd bd 3c 01 a3 bd 55 b9 c4 3d
       -0.07280281 -0.0923749 -0.0795922 0.09605662
000110 34 1d 46 bd 70 85 f4 3d 4d 75 c9 bd 76 70 ff 3d
       -0.048367694 0.11939514 -0.098368265 0.12472622
000120 6e 38 57 3d 0d 87 a7 3d 88 f2 14 be ca e1 0b 3e
       0.05254405 0.08180056 -0.14545643 0.1366035
000130 13 5b 69 3b f9 de 81 3d 94 8b ed 3d bf ad b5 bd
       0.0035607263 0.06341357 0.11598888 -0.0887103
000140 78 2a 2f bd 3f 72 d9 3d de 8a 83 bd 38 e3 d6 bd
       -0.04276511 0.10617494 -0.06422971 -0.10492557
000150 bf 28 98 3d da b7 f5 bd 53 e0 c0 bd 83 a5 bc 3d
       0.07429647 -0.119979575 -0.094177864 0.09211256
000160 f7 c1 81 ba d8 67 ae ba 92 a9 e5 bd 60 c8 95 3d
       -0.0009899725 -0.0013306094 -0.112139836 0.07313609
000170 73 21 94 bd 21 ea b7 bb 4e a9 cd bd e8 88 8c bd
       -0.072329424 -0.005612627 -0.10042058 -0.0686205
000180 82 c8 38 bd fc 03 68 bd c1 cd 4c 3d f9 6f 20 bd
       -0.045113094 -0.056644425 0.05000091 -0.039169285
000190 e4 18 51 bc 6d 2e 33 3d 36 f3 a3 bd 3f 21 aa bd
       -0.012762282 0.043745447 -0.08005373 -0.083071224
0001a0 c9 6a 8c 3b e7 bb 84 3d 7a 7b c6 3d b5 39 ce bd
       0.0042851907 0.06481152 0.0969152 -0.100696005
0001b0 eb ec b0 3c 86 25 20 3d 69 97 d2 bd 4f ea ea bd
       0.021597346 0.039098285 -0.102827854 -0.11470472
0001c0 ad d7 94 3d 8f 86 bf 3c 02 f2 af bd 12 75 2d bd
       0.072676994 0.023379592 -0.08591081 -0.042347975
0001d0 47 27 df 3d 28 fd 38 bb e8 79 9d 3d e4 dd 9f 3d
       0.108961634 -0.0028227065 0.076892674 0.07805994
0001e0 dd 1f 8a bd ff 6f 26 3d c3 18 ea bc 09 a5 4a 3c
       -0.06744359 0.04063415 -0.02857626 0.012368449
0001f0 6e 78 fc 3c 85 e8 98 3d ef 15 95 bd a6 d3 84 bd
       0.030819144 0.074662246 -0.07279574 -0.06485681
000200 e5 85 81 bd ec 05 df 3d 37 a1 08 be 2c 0b 86 3c
       -0.063243665 0.108898014 -0.13342749 0.016362749
000210 b3 3a ba bd dd 59 82 3d a1 f2 b2 bd a5 8a 26 bc
       -0.09093227 0.06364796 -0.08737684 -0.010164891
000220 94 6d fd bd 9d a5 80 3d 36 af 40 3d 7f 5d 8f 3d
       -0.12374416 0.06281588 0.047042094 0.07000255
000230 89 73 c1 3c c7 f1 9d 3d 6e 08 cb bd 3d d3 d9 bc
       0.023614662 0.07712131 -0.09913717 -0.026589984
000240 c2 58 d1 bb b7 58 ec 3c 61 cd 8a bc e8 c1 9c bd
       -0.0063887546 0.028850896 -0.016943635 -0.07654172
000250 ed 3d de 3c 9a 14 cd 3c 70 c2 ea bd 08 f8 f4 bd
       0.027129138 0.025034238 -0.11462867 -0.11961371
000260 46 ed 3f 3e 35 4e 54 bd c4 27 1a 3e 54 cb 96 bd
       0.18742856 -0.051832397 0.15054232 -0.073630005
000270 8c 5d 01 3e 33 ee 59 3d e1 dc c2 3c 7d cd 74 3d
       0.12633342 0.05320568 0.023786964 0.05976628
000280 6e a3 ab bd 19 d8 eb 3d aa 1a 55 3d 94 f9 8e 3b
       -0.08380781 0.11515827 0.052027382 0.004363248
000290 36 71 b9 bd 77 9a ba 3d 24 33 93 bd 2a 0f e2 3d
       -0.090547964 0.09111493 -0.07187489 0.110380486
0002a0 3f d4 96 3d 62 6e 16 3c 37 b9 4d bd 61 51 54 3c
       0.073647015 0.009181591 -0.050225463 0.012958855
0002b0 03 20 1d 3c e2 ab 85 3d 8c 5f 05 be af f1 e1 bd
       0.009590152 0.06526925 -0.1302473 -0.110324256
0002c0 47 e5 f9 bc 57 bd 11 3e ab b2 f6 bd 4e 36 76 3c
       -0.030504836 0.14232384 -0.12045797 0.015027596
0002d0 5f ca 51 bd 01 49 d3 bc ee ea d9 3c 29 97 c6 3d
       -0.051218387 -0.025791647 0.026601281 0.096968
0002e0 6b e4 a6 3d de 5d 0e be 77 8d 73 3d 70 f9 e9 3d
       0.08149036 -0.13902995 0.059461083 0.114245296
0002f0 1f b4 77 3c fe 19 5a 3d 46 9a 05 be d3 8b 38 bc
       0.015118628 0.053247444 -0.13047132 -0.011263805
000300 40 7a df b9 02 56 1b bd 72 86 15 3d 4e 44 22 3e
       -0.00042624958 -0.03792382 0.03650517 0.15846369
000310 32 42 c7 bd 10 a5 fe 3c 1a 40 1e 3d 98 97 d1 3d
       -0.09729423 0.031084567 0.03863535 0.10233992

lstm.weight_ih_l1 f4 [200, 50]
000000 f7 5d 99 3d 4a 01 b5 3d f6 2c 03 3e 33 09 bb 3d
       0.074886255 0.088381365 0.1281012 0.09132614
000010 c0 fc 08 bd c6 12 9c bd 63 de 2e bd ef 71 09 bc
       -0.033444166 -0.07620768 -0.042692553 -0.00838898
000020 70 1b ad bd a8 a7 99 3d 60 37 8b bd dd 05 e2 3d
       -0.08452499 0.07502681 -0.06797671 0.110362746
000030 c8 4c e9 bd 4b c9 b8 3d 0c 3b 28 3d c5 09 f4 3d
       -0.11391598 0.090227686 0.041071936 0.11915926
000040 99 4f 3c bd 71 1c 0f 3e ba c0 4b 3d cd ea 1e 3e
       -0.045974348 0.13975693 0.049744345 0.15519257
000050 ca 79 c9 3d 8d d9 63 bd 7d 5d 92 bc cf 95 3a bd
       0.098376825 -0.055627394 -0.017866844 -0.045553025
000060 03 7f 1b bd c5 20 d8 bd 89 83 07 3e a9 ae 9c 3d
       -0.037962925 -0.10553125 0.1323377 0.07650501
000070 bf bc 82 3d d6 06 1c 3c 0c ff cc 3d a1 33 c1 3d
       0.06383657 0.009523114 0.10009584 0.094336756
000080 94 32 41 3a 6d 1d e0 3d 30 d1 80 3b 90 a8 ee 3d
       0.00073699025 0.109431125 0.003931187 0.116532445
000090 2e 2c b5 3c dd 2a 01 be ba a9 e5 3c 58 2a c7 bd
       0.022115793 -0.12614007 0.028035033 -0.09724873
0000a0 e3 a1 99 bd 46 a9 54 3d e5 8c 5e 3b ef 71 f9 3d
       -0.075015806 0.051919244 0.0033958491 0.12179934
0000b0 79 63 87 bd be e8 16 3d 34 b5 72 3d 29 66 90 3d
       -0.0661077 0.036843054 0.05925484 0.070507355
0000c0 ce 6f 6b bd f1 c7 18 3d 8d 69 10 be c9 c2 3f bd
       -0.057479672 0.037300054 -0.14102764 -0.04681662
0000d0 8e b5 6e 3e bf 92 52 3d cb 8f 23 be 97 9a bf bd
       0.23311445 0.05140948 -0.15972821 -0.093556575
0000e0 bf 84 00 3e 0c 04 9a bd d8 0a c0 bd 82 7e 3b 3c
       0.12550639 -0.07520303 -0.09377068 0.011443736
0000f0 4c 93 a0 bd a1 ef 85 3d 85 b5 9c bc ae ab 87 3c
       -0.07840595 0.06539846 -0.019129524 0.016561355
000100 d7 2b d1 bd b4 48 ea 3d 0f 3a c5 3d 19 a4 a1 bd
       -0.1021344 0.11439648 0.096302144 -0.07892627
000110 31 6c a1 bd 5e 4a 56 bd 1a 9d f7 ba 15 f6 fa 3c
       -0.07881964 -0.052317016 -0.0018891424 0.03063492
000120 46 d5 d8 3c 7b 19 3e 3e d0 fc 07 3e c2 65 cf bc
       0.026468884 0.18564408 0.13280034 -0.025317077
000130 0a d6 79 3d 76 1c 91 3d b0 af 8d 3c fa 2f ab 3d
       0.06099514 0.070855066 0.017295688 0.0835876
000140 da 4e 04 3e ee 6b 4c 3e 15 c4 d2 3d b6 96 99 3d
       0.12920704 0.19963047 0.10291306 0.07499449
000150 8a a6 9e bd df 9b 59 bd e7 f7 f6 3d e4 48 06 3e
       -0.077466086 -0.053127166 0.12059002 0.13113743
000160 42 2c e3 3d e6 12 ee 3c 58 ae de bd 83 7a 85 3c
       0.11092426 0.029061746 -0.10873097 0.01629377
000170 bd 2d 15 bd 98 67 36 bd 36 2a a5 bd c9 2d 39 be
       -0.036420573 -0.04453239 -0.08064692 -0.18083872
000180 50 02 6d 3e b5 20 73 3d 4f 56 10 3e 5b 2b 13 3e
       0.23145413 0.059357364 0.14095424 0.14372008
000190 07 bb df 3b 03 4a a7 bc 10 20 0b 3c ab 62 bd bd
       0.0068277153 -0.020421034 0.008491531 -0.09247335
0001a0 45 f0 d4 bc 68 70 e9 3d 95 f8 26 be 83 5f 2f 3e
       -0.025993476 0.11398393 -0.16305764 0.17126279
0001b0 e1 69 d0 3d 27 d8 a3 3a 11 08 c3 bd d5 96 1e be
       0.10176445 0.0012500332 -0.09523023 -0.15487225
0001c0 c5 65 bd 3d 42 3a ca bc d3 d9 d0 3d 90 f1 21 be
       0.092479266 -0.024685983 0.10197797 -0.15814805
0001d0 df e4 14 3d 70 12 fc 3d 5f 72 29 bc 06 9c 3a bd
       0.03635108 0.12308204 -0.01034221 -0.04555895
0001e0 f3 8e f3 bc c7 b3 e4 3d 29 e1 26 3d 00 2b 8b 3c
       -0.02973125 0.11167102 0.040742073 0.016988277
0001f0 a6 00 ec 3b 0f 6d 0f be 7c 2a 1f 3e bb 3c 80 bd
       0.0072022257 -0.14006446 0.1554355 -0.062615834
000200 21 ee 84 3d a6 df e3 bd 33 60 f0 3d 87 9d 01 3d
       0.06490732 -0.11126642 0.117370985 0.03164437
000210 cf e9 ec 3d 89 6c ec 3c 02 a0 a8 3d 92 28 5a 3d
       0.11568033 0.028860347 0.08233644 0.053261347
000220 44 19 d3 bd 16 09 c1 bd ad 46 88 3d 18 99 aa bc
       -0.103075534 -0.09425561 0.06654105 -0.020824954
000230 f9 ae d6 bd 3d 41 e9 3b aa f6 22 3e 2c 73 21 3e
       -0.10482592 0.0071183727 0.15914407 0.15766591
000240 bc b6 c8 3c 9c 04 fe bd 0e eb 11 3d bb 5e 81 3d
       0.024501197 -0.12403223 0.035624556 0.063168965
000250 ef 4b 69 bd 29 c7 ba 3d ad 10 5b bd e9 02 90 3d
       -0.05695718 0.09120018 -0.0534827 0.07031805
000260 a9 17 02 3e 56 c3 0c be db c5 9e bd bc 88 a0 bc
       0.12704338 -0.1374639 -0.07752582 -0.01959645
000270 8a a1 15 be ba 56 16 bd c5 91 57 bd 47 6e 02 3e
       -0.14612404 -0.036703803 -0.05262925 0.1273738
000280 4d 25 a4 3c ca c8 61 bd cb 38 e1 3d 5f de 19 3d
       0.020037318 -0.055123128 0.109971605 0.037565585
000290 fd f9 cc bd de e2 22 bd 1e f8 59 3d 58 1f c9 bd
       -0.10008619 -0.03976714 0.05321514 -0.098204315
0002a0 d9 7a 4d bd 59 98 31 bd 6d 8d 93 bb a4 de a7 bd
       -0.050165985 -0.04335818 -0.0045029433 -0.08196762
0002b0 88 2a 9a bd 0c 0b 80 3d 8a a7 8f 3d 8d 53 18 be
       -0.075276434 0.06252107 0.070143774 -0.14875622
0002c0 d2 e2 d8 3c 0d 8a ff bd 06 57 e6 bc 0d cd f8 bd
       0.026475344 -0.12477503 -0.028117668 -0.12148485
0002d0 1a 3d 28 3d 46 bc c5 3d 27 ea 34 3d 75 29 b9 bd
       0.041073896 0.09655051 0.044168618 -0.090411104
0002e0 d5 67 12 3d cd fb f9 3d 6e e0 0b be 93 c6 b8 bd
       0.035743553 0.1220623 -0.13659832 -0.0902225
0002f0 0d c2 38 bb a3 00 6f bd 75 8a 07 3d 45 39 b1 3d
       -0.0028191835 -0.058350217 0.033091027 0.086535014
000300 e0 18 d3 3d 4c 57 b3 3c fb d2 cd bc 29 5f 55 be
       0.10307479 0.021892212 -0.025125017 -0.20837082
000310 d1 22 20 3e e2 79 58 3d f8 fb 6e bb f0 5d 34 3e
       0.15638281 0.05285061 -0.0036466103 0.1761396
000320 89 d9 b3 bd 87 0c 15 3e 0c 0b f7 bd 41 0a 21 3e
       -0.08781726 0.1455556 -0.12062654 0.15726568
000330 a4 65 18 bd 95 2c 78 3d f9 e9 34 bd 50 1a 45 be
       -0.037206307 0.06058939 -0.044168446 -0.19248319
000340 0a 6d c3 3a 36 9a d8 bc 09 7f c0 3d 5e c7 39 bc
       0.0014909816 -0.026440721 0.0939923 -0.011339037
000350 f0 92 71 bd 81 4a ba bd c9 7d 2c bd 13 11 85 bb
       -0.05897802 -0.09096242 -0.042112146 -0.0040608733
000360 23 f6 96 bc e2 41 94 bd cb eb d0 bd 18 de fd bd
       -0.018427914 -0.07239129 -0.10201224 -0.12395877
000370 73 46 57 3d ea e3 91 bd e0 86 09 be 13 0a ec 3d
       0.05255742 -0.07123549 -0.13430357 0.11525359
000380 59 24 22 bd ec fc 09 3e c8 0a 4c be 9f aa 5c 3c
       -0.039585445 0.13475388 -0.19925988 0.013468414
000390 45 52 7b bc fe af 06 3e 9e 93 90 bc 98 0e c5 bd
       -0.015339439 0.13153073 -0.017648514 -0.09621924
0003a0 67 2e 1e be 40 36 4d 3d 75 b5 ad bd 95 0d 9e 3d
       -0.15447389 0.050100565 -0.08481876 0.07717434
0003b0 64 cf 3e bd 82 19 37 be 7b 1f a0 bd 94 af 63 3d
       -0.0465845 -0.17880824 -0.078185044 0.055587366
0003c0 eb 21 39 3c 4d 26 70 3e eb 36 52 3b da 61 28 bd
       0.011299591 0.2345211 0.003207619 -0.041108944
0003d0 f1 de 25 3e 91 1d 9b 3d 38 a6 5f 3d c9 34 39 3d
       0.16198327 0.07573999 0.054601878 0.045216355
0003e0 a6 13 d5 bd ed d4 c0 3d c1 e8 81 3d d4 21 4b bd
       -0.10404138 0.09415612 0.063432224 -0.049592808
0003f0 a1 c3 db bd ba 69 05 3d 51 84 88 3d d4 7b 87 3d
       -0.10730673 0.03257153 0.06665862 0.06615415

lstm.weight_hh_l1 f4 [200, 50]
000000 64 61 95 3b 12 fb 69 3d 83 ee a5 bd ef 7a d1 3b
       0.004558729 0.057124205 -0.08102133 0.0063928287
000010 85 eb ed 3d b5 64 fd 3d ca 1c d1 3c f2 ac 3c bd
       0.116171874 0.12372724 0.025526423 -0.04606337
000020 bb 95 c5 bd b9 89 23 3d 47 98 dc 3d f4 0d 9c bd
       -0.096476994 0.039926264 0.10771232 -0.07619849
000030 65 d7 06 bd 51 b5 af 3d 1d e9 7a bd 30 79 f0 bd
       -0.03292026 0.08579505 -0.06125747 -0.11741865
000040 a4 c6 a3 3d e4 13 f4 bd 22 59 87 3d 9e 9c d9 ba
       0.07996872 -0.11917856 0.066087976 -0.0016602462
000050 9e a5 77 bd 32 ae 03 3e 91 7a df bd eb 68 96 bd
       -0.06046068 0.12859419 -0.109120496 -0.0734423
000060 db c1 2a bd 40 cf 01 be 0f 0f ff 3c 1c b2 67 bd
       -0.04168878 -0.12676716 0.03113511 -0.056566343
000070 5d 2c 9b bd 1c cd be 3d 1b 0a d8 3c 3d 57 66 bd
       -0.07576821 0.09316465 0.026372006 -0.05623554
000080 e3 c8 19 3d a8 8a 9f bd df a4 93 bc c7 61 0e be
       0.037545096 -0.077901185 -0.018022953 -0.13904487
000090 bb 85 52 bd 62 ee cb bd a7 60 08 bb 37 c5 03 3d
       -0.051397067 -0.09957577 -0.0020809562 0.0321705
0000a0 f5 5d f6 bd 8a 8c 7c 3d fa ed 54 bb 88 84 eb 3b
       -0.1202964 0.061657466 -0.0032490478 0.00718743
0000b0 3d 2a 1a 3d 26 f4 1b bd 97 4c f4 3c 10 08 bf b9
       0.037637938 -0.038074635 0.029821677 -0.00036436366
0000c0 d3 d8 92 bd 05 af 91 bd 8c b8 05 bd 25 38 c7 bc
       -0.07170262 -0.071134605 -0.0326467 -0.024318764
0000d0 18 1d 1b 3e a0 31 c3 3d b9 22 1d 3d 08 6d 05 be
       0.15147817 0.095309496 0.038363192 -0.13029873
0000e0 32 52 78 3d 0d 0b a8 bd e4 0e f4 bd 48 8e 69 3d
       0.060625263 -0.08205233 -0.11916903 0.057020456
0000f0 ef d6 b9 3d 78 a5 c3 3d 59 a1 81 3d 3a 6a e6 3d
       0.090741985 0.09553045 0.06329603 0.1125073
000100 90 a7 a2 bd 35 1d 7d 3c 52 fb b1 3d a4 2f 49 3d
       -0.07942116 0.015448858 0.08690514 0.0491177
000110 c4 de 24 3b 9e 3a 52 3d 5a 82 70 3c e6 d7 00 bd
       0.0025157193 0.051325433 0.014679516 -0.031455897
000120 df 14 84 3d 2a fe 01 3e 2a 4d b0 bd 17 78 14 bc
       0.06449293 0.12694612 -0.08608468 -0.009061835
000130 aa 2c b0 3d 11 83 8a bd da c5 da bd e7 40 82 3d
       0.08602269 -0.0676328 -0.106822684 0.063600354
000140 40 37 17 bd 39 2a e2 bc 4a c8 a9 3d 7b d5 97 bd
       -0.036917925 -0.027608024 0.08290155 -0.07413765
000150 62 4a 2d bc 14 0f fb bd 3a 29 e7 3d 5b ac 92 3d
       -0.010576816 -0.12258735 0.1128716 0.071617804
000160 be 75 99 bd 56 0c 17 bd 0d 89 c2 bd 41 50 0c be
       -0.07493161 -0.036877 -0.094987966 -0.1370249
000170 69 33 8f bc 3f fd 1d 3e 16 c3 87 3d 54 5a e9 bd
       -0.017480569 0.15428637 0.066290066 -0.11394182
000180 d3 ea 0c bd 68 f1 89 bd fd 8d 29 3d d2 09 7c bd
       -0.034403633 -0.06735498 0.041395176 -0.061532803
000190 c3 a7 b2 3d ac a7 22 3d 4b 71 6d 3d 24 0c eb 3d
       0.08723404 0.039710686 0.057969373 0.11476925
0001a0 fd b3 f4 3d 8f 5d 90 bc 5d 3a cb bd b0 00 23 be
       0.119483925 -0.017622737 -0.09923241 -0.15918231
0001b0 17 45 c1 3c 9b 2a a8 3d 97 a7 ce bd 56 c9 44 3d
       0.023592515 0.08211251 -0.10090559 0.04804357
0001c0 37 4d 2a 3e a5 32 ea 3b 17 48 5e bd 04 a1 20 3c
       0.16631018 0.0071471506 -0.05426797 0.009804014
0001d0 82 5b 8c bd e6 16 15 be a0 cd bc 3d 85 f1 ce bd
       -0.06853391 -0.14559516 0.09218907 -0.1010466
0001e0 02 04 e0 bd 4d 38 53 bd b1 b2 08 be aa e3 9a bd
       -0.109382644 -0.051567364 -0.13349415 -0.07562955
0001f0 92 eb 20 bd 32 ec 0d 3e 5d 63 71 bd d9 be 12 3c
       -0.039287157 0.13859633 -0.05893265 0.008956634
000200 60 58 9b 3d 70 23 60 bd c5 92 db 3d df 09 95 3d
       0.075852156 -0.054721296 0.107213534 0.072772734
000210 e9 02 f4 bd 31 32 4b bc b9 37 e3 3d d4 86 e4 bc
       -0.119146176 -0.012402103 0.11094613 -0.027896322
000220 ef 35 d8 3c 86 f3 1c 3e 90 24 09 3e 9a 27 5c bd
       0.026392905 0.15327272 0.13392854 -0.053748704
000230 16 18 9a 3d 30 99 b0 bd f9 46 c1 3d ab b7 0c 3e
       0.07524125 -0.08622968 0.09437365 0.13741939
000240 c3 c0 26 3e 64 fa b7 3c cb d3 df bd 60 ba c7 bd
       0.1628447 0.022458263 -0.10929068 -0.09752345
000250 92 fd c0 3d 57 c0 1b be e7 a9 3a 3c 0f d4 55 bd
       0.09423365 -0.1521009 0.011393047 -0.052204188
000260 2c 35 01 be 4d 60 c7 3b 35 ae 0c bd 33 d5 01 be
       -0.1261794 0.006084478 -0.034345824 -0.12678985
000270 e2 41 ed 39 2f a8 0f 3d 79 d8 92 bd 29 6c 16 bd
       0.0004525325 0.0350725 -0.07170195 -0.036724243
000280 ed 75 c4 3d 0e 3e f8 3d e5 7a 0f 3d b6 e3 ee 3c
       0.09592805 0.12121211 0.03502931 0.029161315
000290 f5 5a 08 be 6a 40 9c 3d 7c 4e bd bc 64 6c 45 3d
       -0.13315947 0.076294735 -0.023108713 0.048199072
0002a0 eb b2 af bd 2b cd cf 3d 41 ee 1f 3c 8e db 6e bd
       -0.08579048 0.101465546 0.009761394 -0.058314852
0002b0 41 23 f4 bc 50 36 9f bd 7d 34 76 bd 27 86 51 3c
       -0.029801967 -0.07774031 -0.06010865 0.012788332
0002c0 2a f1 98 bc 20 c9 b1 bc 29 42 79 bd 49 bd d8 bb
       -0.018669683 -0.02170235 -0.06085411 -0.0066143614
0002d0 c0 1e 26 bd ef 23 ea 3d ec 90 bb bd ea 6c d1 3c
       -0.04055667 0.11432635 -0.09158501 0.02556463
0002e0 f7 0b ea bd c0 a2 b6 3c 16 e8 66 3d 39 d8 fe 3d
       -0.11428063 0.022294402 0.05637368 0.12443585
0002f0 5b 8a f8 3d a1 66 01 be 76 f1 e7 3d e5 7e ef 3d
       0.12135764 -0.12636806 0.11325352 0.11694125
000300 ea 13 f8 bd 9c f8 d8 bc 23 81 1b bd 51 47 92 3d
       -0.12113173 -0.026485734 -0.03796495 0.07142509
000310 60 03 5d 3d b2 d1 d1 3d 92 a1 f1 3d 20 bd 72 bd
       0.053958297 0.10245074 0.11798395 -0.059262395
000320 3f 11 04 3d 7b e6 65 bd df 78 9f bd 16 b2 b5 3d
       0.03224301 -0.056128006 -0.07786726 0.08871858
000330 c6 ad c6 3d 90 9e 59 3d af de 8d 3c d5 19 22 3e
       0.097011134 0.053129733 0.017318098 0.15830167
000340 a9 8d 85 bd 37 0d 89 bd 0a 4d 8f bd c2 c9 3f 3d
       -0.0652116 -0.06691974 -0.06997116 0.04682327
000350 91 3c 6d bd cf 54 ef bd f8 8d c5 3d 06 1f 24 3e
       -0.05791909 -0.11686098 0.09646219 0.1602746
000360 9a 1a e3 bd 11 61 17 3c 7b de 3a bd 53 b4 9f bd
       -0.11089058 0.009239451 -0.04562233 -0.07798066
000370 13 12 b3 bc 8d a3 c9 bd 05 32 58 bc 5c a9 e2 3d
       -0.021859204 -0.09845648 -0.013195519 0.11067459
000380 fa 28 1f bd 2b 76 e4 bd 77 ef f3 3d 84 2d cd 3d
       -0.038857438 -0.11155351 0.11910909 0.10018447
000390 ee 79 4c 3d 38 60 f5 bd c6 10 d0 bd c0 5c 82 3b
       0.04992097 -0.11981243 -0.10159449 0.003978342
0003a0 ec d5 2f 3d b1 b0 f2 bd 1d 90 86 bd 88 43 2a bc
       0.04292862 -0.118501075 -0.06570456 -0.010392077
0003b0 74 cd 34 3d 9c 66 de bd 30 38 8f bd 65 6a e3 bc
       0.044141248 -0.10859415 -0.06993139 -0.027760694
0003c0 f8 9e 4a be 3c a3 53 3c 8e 78 1c bd c7 35 57 3d
       -0.19787204 0.012917336 -0.038200907 0.05254152
0003d0 fc 08 d9 bc f6 6a 9b 3d 62 c3 ee 3d e5 5b 28 3d
       -0.026493542 0.075887606 0.1165836 0.041103262
0003e0 db 25 3b be ad b2 1a 3d 4a 23 b9 3c db c6 a2 bd
       -0.1827616 0.037768055 0.022599835 -0.07948085
0003f0 5e c9 0e 3e 2b 90 4e bd fc 4e 1e 3d 05 9a 4f bc
       0.13944003 -0.050430458 0.038649544 -0.012670998

lstm.bias_ih_l1 f4 [200]
000000 81 ef 05 bd 2b 5c d8 bb 7e ea 08 3e 93 64 40 3d
       -0.03269911 -0.006602784 0.13370702 0.046970915
000010 d6 93 8c 3d f9 c7 a3 bb 76 6b ba bd 16 10 80 3d
       0.06864135 -0.004998204 -0.09102528 0.06253068
000020 59 27 c6 bd 7e 72 c8 bd 5c 64 d6 bd 65 ef 0d be
       -0.09675474 -0.09787463 -0.10468361 -0.13860853
000030 db 77 6d bc c5 7f c3 3d 9b 1a 90 3c 7b 03 0d 3e
       -0.014493908 0.095458545 0.017590811 0.13770859
000040 e5 c2 0d be d6 ff 1a bd 7f b3 fd 3c 1b 6c 84 3c
       -0.13843878 -0.03784164 0.03096938 0.01616483
000050 7d c5 73 3d a4 87 dc 3d 0c 31 c6 bc 0f 83 e2 bc
       0.05951451 0.10768059 -0.02419331 -0.027650384
000060 1e a4 f6 bd 76 3b d7 bc 31 ca f6 3d fd 22 94 3c
       -0.120430216 -0.02627347 0.12050284 0.01808309
000070 bf ea 9e bd 50 a6 04 3e 80 b0 b8 3d ce 9a 67 bd
       -0.07759618 0.12954068 0.0901804 -0.056544118
000080 89 82 f3 bb de d9 13 be 34 46 8b 3d 49 bb d5 bd
       -0.0074313325 -0.14438578 0.068004996 -0.104361124
000090 05 92 97 3d 46 76 30 bd e3 f1 d6 bd 86 29 f4 bd
       0.07400898 -0.043081544 -0.10495355 -0.119219825
0000a0 47 2b e6 3d 21 df 0b 3d 4c 0a 00 3e 15 db 87 3d
       0.11238723 0.03414834 0.12503928 0.066335835
0000b0 1d c6 b8 bd a4 35 b7 3d b9 a5 67 bd 06 64 b4 bd
       -0.09022162 0.08945778 -0.05655453 -0.088081405
0000c0 4f 6d 4f 3d f6 e4 fa 3d f5 7b 02 3e f8 2b 98 bd
       0.050641354 0.12250702 0.12742598 -0.074302614
0000d0 ec 45 b3 3c e3 88 f2 bd 67 f1 d5 3d 36 4d 6e bd
       0.021883927 -0.11842515 0.104464345 -0.058179103
0000e0 cc c4 0e 3d 60 ea 90 3c f8 2d 96 bd 26 7c 86 3a
       0.03485565 0.017689884 -0.073329866 0.0010260388
0000f0 bf fe 80 bd 25 5c 05 be e8 41 4b bd 44 84 b4 3d
       -0.06298589 -0.13023432 -0.0496234 0.0881429
000100 05 c6 f8 3d 97 dc 87 bd e6 81 28 bd c7 f8 9a bd
       0.12147144 -0.06633871 -0.041139506 -0.07566982
000110 8a ba 50 3d 03 5b cd bd ae f9 21 bd 82 de 35 bd
       0.050959148 -0.10027125 -0.039544754 -0.044401653
000120 b2 46 ac bc e5 ca 7c bc 6a 3b ba bd 74 e5 ac 3d
       -0.021029804 -0.015429233 -0.090933636 0.08442202
000130 15 4a 35 bd 4b 78 e3 3c e6 f7 1a be be c5 db 3d
       -0.044260103 0.027767321 -0.15133628 0.10731076
000140 6b 1b a3 ba cc a3 25 bd b7 be 9a bc 32 e3 28 bd
       -0.0012444084 -0.040439412 -0.018889768 -0.041232295
000150 43 74 22 be 24 03 c8 3d 90 a8 c5 bd 1c b7 f7 bd
       -0.15864663 0.09766224 -0.09651291 -0.12095472
000160 b1 f5 d7 bd 5b 5a 08 3e ed f3 0a 3e 69 9c a2 bd
       -0.10544909 0.13315718 0.13569613 -0.07939989
000170 5f ca 55 3d fa 5e 09 be 8b c1 d9 bd ec 05 84 bd
       0.05219495 -0.13415137 -0.106326185 -0.06446442
000180 1b 30 05 3e ea cf 90 bd e4 af 0b 3e c7 eb 45 bd
       0.13006632 -0.070709065 0.13641316 -0.048320558
000190 f1 53 ff 3d ad 37 ba bd 9f f4 49 3d 7c ba a8 bd
       0.124671824 -0.090926506 0.049305554 -0.08238694
0001a0 78 f1 57 3c 1b c9 99 3d f0 c9 da bd 34 3b b7 bb
       0.013180129 0.07509061 -0.10683048 -0.0055917744
0001b0 9d c6 e6 3d 5b 4a f6 bd ee 5b 92 bd 6f 25 46 3d
       0.11268351 -0.12025901 -0.071464404 0.048375543
0001c0 45 93 0f bc bd 82 76 bd 22 b7 99 bd 4f 5b e4 3c
       -0.008763139 -0.060183275 -0.07505633 0.02787557
0001d0 83 64 5d bd 27 0b e1 3c dd a0 00 be 95 f8 9e bd
       -0.054050934 0.027471138 -0.12561364 -0.07762257
0001e0 9a 20 62 bd 4e 46 c2 bd 15 bc 20 bd 2f 22 ef 3c
       -0.055206873 -0.09486066 -0.03924187 0.029191105
0001f0 eb 50 b0 3d 08 a4 0b bd a3 d3 df bd c2 d8 f8 bd
       0.08609184 -0.03409198 -0.109290384 -0.12150718
000200 63 af 82 bd 6b 20 50 3d 2c 92 3b 3d e5 55 ae bd
       -0.063811086 0.050812166 0.045793697 -0.08512477
000210 cc 5e be bb d9 2e 88 3d 8e ce 51 3d 1f 4e 85 3d
       -0.0058096405 0.066495605 0.051222377 0.06509041
000220 22 e2 68 3c e7 30 60 bd 48 a2 b5 bd f5 e2 ae bd
       0.0142140705 -0.054734137 -0.08868843 -0.08539382
000230 6d a6 c2 3d 43 09 79 bd 85 93 9e 3d 32 7c b1 bd
       0.095043994 -0.06079985 0.07742981 -0.086662665
000240 77 a9 f9 bc 7c bf ba bd 25 58 98 3d 3c 35 95 3d
       -0.030476315 -0.09118554 0.07438687 0.07285544
000250 39 fe 3c bd 39 13 b8 3d e0 3a a6 bd bf 83 6e 3d
       -0.046140883 0.089880414 -0.08116698 0.05823111
000260 cb 6a c3 3b b0 42 38 bd eb ff e8 3b e7 25 a6 bd
       0.0059636584 -0.044985473 0.007110586 -0.08112698
000270 0c 72 81 3c 7e ae 87 3c 48 02 80 3d 56 8b 56 bd
       0.015801452 0.016562697 0.06250435 -0.052378975
000280 ca 14 5c bd d9 6a 98 3d cd 3a e4 bd e4 d3 bc 3d
       -0.053730763 0.074422546 -0.11144028 0.092201024
000290 48 e7 1c 3d 73 6c af 3d 2a 80 66 3d 3d ad 09 bd
       0.038306504 0.08565607 0.05627457 -0.03361248
0002a0 12 48 bd 3d 60 db 75 3c 4e 97 04 bd 95 2f 61 bb
       0.09242262 0.015005916 -0.032370858 -0.0034360636
0002b0 4e f2 3a bd a2 2c c5 bd 92 56 2b 3d 5e ed 26 be
       -0.045641236 -0.09627654 0.041830607 -0.16301486
0002c0 f9 d9 ae 3d 33 e9 0e be c2 67 5a bd dd b8 1a 3e
       0.08537669 -0.13956146 -0.053321607 0.15109582
0002d0 1a 10 a8 bc f7 23 4c 3d 04 ac a0 bd e6 2a 27 be
       -0.02051549 0.049838986 -0.078453094 -0.16324958
0002e0 6b a9 64 bd 77 f8 f0 bd ef fb 03 3d f1 3a a4 3d
       -0.055825632 -0.11766141 0.032222684 0.08019055
0002f0 a1 ad 1e bd 3b 97 1f 3d 3b 27 02 3b 24 2f 8b 3c
       -0.038739804 0.038962584 0.001985981 0.016990252
000300 ea 0c 8a 3c ba 03 0d be 7c 31 42 bd f8 2c 2d 3d
       0.016851861 -0.13770953 -0.047410473 0.042279214
000310 ae 5e bd bd d4 ba de bd b0 cc e9 bb cb b4 cf bd
       -0.09246574 -0.108754784 -0.0071349964 -0.101419054

lstm.bias_hh_l1 f4 [200]
000000 d1 6c ee 3d d4 0b e5 bd 10 e2 e6 bd b9 01 d1 bd
       0.11641849 -0.11183897 -0.11273587 -0.10205407
000010 59 b8 b9 bb fd 99 0d 3e 98 c4 bc bd 0a 42 84 bd
       -0.005667728 0.13828273 -0.09217185 -0.064579085
000020 ba d9 f3 bc 2a 1b f3 3d 02 de c8 bd e5 c1 d9 3d
       -0.029766906 0.118704155 -0.0980797 0.106326856
000030 c1 ea 23 bb ec 9e 38 bd 02 ee 9a 3d fa 89 c6 bd
       -0.002501175 -0.045073435 0.07564928 -0.09694286
000040 6c 21 07 bc 7b c7 ed bd 21 2d c7 bd c9 8e d2 3d
       -0.0082477145 -0.116103135 -0.097254045 0.1028114
000050 c5 78 f7 bc fc ef b9 3d 4c d4 74 3d 2a 98 18 be
       -0.030208955 0.090789765 0.059772775 -0.14901796
000060 28 9a 95 3d 8f 6b d8 bd 4c f5 2c 3d 08 f0 c4 3d
       0.073047936 -0.1056739 0.04222612 0.09616095
000070 70 5c 12 be 65 2b 94 3d 13 ee d2 bc 90 41 fd 3d
       -0.14293075 0.07234839 -0.025748288 0.12366021
000080 e7 92 84 bd 4e 6f 00 be 54 2a 23 bd 2c df df 3d
       -0.06473332 -0.1254246 -0.03983529 0.109312385
000090 01 ee 5e bc 8c 1f 53 bd 4a 9d da 3d 9c 43 0c 3e
       -0.013606549 -0.051543757 0.10674532 0.13697666
0000a0 a5 96 8a 3c 99 bc 62 3d 24 6d 18 3e 03 91 d5 3d
       0.016917536 0.055355642 0.14885384 0.104280494
0000b0 39 73 f3 bb f4 87 0d be 8d ae b6 bd ea 76 93 3d
       -0.007429507 -0.13821393 -0.08920012 0.072004154
0000c0 77 db 22 bd ba f0 ba 3d 9d 35 01 3e f0 c5 93 bd
       -0.03976008 0.09127946 0.12618108 -0.07215488
0000d0 ef d2 f9 bd 6b 95 b0 3d 06 ac 52 3d 8b 0b cb 3d
       -0.121984355 0.08622249 0.051433586 0.09914311
0000e0 61 a8 0d be 35 85 15 3e 84 61 db 3d f4 85 9a bb
       -0.13833763 0.14601596 0.10711959 -0.0047156755
0000f0 2f fe f5 bd 02 95 8d 3d 47 af 94 bc 3e 30 c8 bd
       -0.12011372 0.069131866 -0.018149985 -0.097748265
000100 40 6c 07 3e 05 fb 10 3d 36 24 ca bd 24 b5 08 3c
       0.13224888 0.03539564 -0.09870188 0.008343969
000110 93 3f e4 3d ae 11 12 3c ee b2 86 bc e6 96 04 3d
       0.11144938 0.008915348 -0.016442742 0.03237047
000120 cc 5a fd bd 5d 72 49 3d d2 4f a2 3d a5 32 82 3c
       -0.12370834 0.04918133 0.07925381 0.01589329
000130 34 00 8f bd e0 c9 1d bc 8d 6b 9f bc 98 5f d3 3d
       -0.069824606 -0.00963065 -0.019460464 0.103209674
000140 c9 45 87 bd 08 43 12 3d cc 46 e3 3d ae d0 a4 bd
       -0.06605107 0.035708457 0.11097488 -0.08047615
000150 55 6d b1 3d 00 3b 51 3b 36 63 1d 3c 3f e1 00 3e
       0.086634316 0.0031926036 0.009606173 0.12585925
000160 57 40 5e 3d e5 5e c5 3d 92 69 e8 3d 0b 81 c2 3d
       0.054260578 0.0963724 0.11348261 0.09497269
000170 47 32 0f 3e 26 61 c9 3d 9d c3 80 3d 41 e6 fc 3c
       0.13984023 0.09832983 0.0628731 0.030871512
000180 4f 5c cd bd da 40 a5 3d 17 5f 04 3b 7a 9b 8b bb
       -0.10027372 0.0806901 0.002019828 -0.0042604776
000190 08 5c 49 bc 73 29 aa bd 72 93 1b 3c aa 96 98 3d
       -0.012290008 -0.08308687 0.009495603 0.07450612
0001a0 c3 53 b2 3d f9 10 cf bd ca e4 a6 3d 45 99 2b 3d
       0.087073825 -0.10110659 0.08149107 0.041894216
0001b0 9f 1c 86 bd 08 29 8f 3d cb ab 75 bc 89 3d ac 3d
       -0.06548428 0.06990248 -0.014994572 0.084101744
0001c0 5d dd 57 bc 35 c3 08 be 9a 11 d5 3d 61 40 75 bd
       -0.013175336 -0.13355716 0.10403748 -0.05987585
0001d0 17 be 1b bd e7 33 d8 3c 01 b3 60 bd 60 f9 ae bd
       -0.03802308 0.026391936 -0.05485821 -0.08543658
0001e0 18 9d 82 ba aa 34 89 3d de e7 01 3d 9a 50 68 bc
       -0.000996503 0.06699498 0.031715266 -0.014179373
0001f0 77 29 c4 bd 59 ad f1 bd 91 69 97 3d da 0b cc 3d
       -0.09578221 -0.118006416 0.07393182 0.09963198
000200 65 76 c0 bc b0 7c f5 bc 69 ac d1 bd 6d 19 b6 3d
       -0.023493955 -0.029966682 -0.10237963 0.08891568
000210 9e 06 4c 3d 65 25 d0 3d 3c cf 91 3d 25 c1 cd 3d
       0.049811 0.101633824 0.07119605 0.10046605
000220 c1 55 8d bd 55 71 b4 3d 62 e6 9e 3d 9b 76 c1 3d
       -0.06901122 0.08810679 0.07758786 0.0944645
000230 6d 5d c8 bd f0 d9 ae bd 6b 11 a4 bc 94 16 a8 3b
       -0.097834446 -0.08537662 -0.020027837 0.0051296446
000240 e0 8f b5 3d 0c e6 f9 3b 08 3d ae bd d6 45 db 3c
       0.088653326 0.0076263007 -0.085077345 0.026766699
000250 10 aa 5c ba 8b ae c5 bd 5d db 9d 3d 4d 86 83 3d
       -0.0008417675 -0.09652432 0.07707856 0.064221
000260 b7 3f 11 3e c8 a6 36 bd 3e ab 85 bd 8a 15 d8 3c
       0.14184462 -0.04459265 -0.065268025 0.026377458
000270 2e 51 f3 3d a5 0d 25 bc ae 59 54 bd c8 76 90 bd
       0.11880718 -0.010074054 -0.051843338 -0.07053906
000280 90 02 13 bd 4f 74 b9 bd 94 f3 17 bc 82 26 b9 bd
       -0.035891116 -0.09055387 -0.009274382 -0.09040548
000290 31 2c b8 bd 21 1a b5 3d b8 2e d4 3d 3d 89 8d 3a
       -0.08992804 0.08842874 0.103604734 0.0010798346
0002a0 60 67 05 3e 78 92 d1 3d 11 91 d0 3d 34 31 e2 3d
       0.13027716 0.10233015 0.10183919 0.11044541
0002b0 87 e9 fd 3c 51 0e 70 bd 0e a3 f2 3d f0 ac 91 3d
       0.030995144 -0.058607403 0.118475065 0.07113063
0002c0 19 a9 8e 3d a9 b3 d4 3d 18 43 c3 3d cf c8 c3 3d
       0.069658466 0.1038583 0.095342815 0.095597856
0002d0 d6 16 b6 bd ea 2b 00 3c 0d c7 fa 3b fa 45 55 3c
       -0.08891074 0.00782297 0.0076531232 0.013017172
0002e0 f8 74 cc bd a9 2f 0c be f3 a4 ca bd 80 8a 9b 3c
       -0.099832475 -0.13690056 -0.09894743 0.01898694
0002f0 26 e9 a5 3d 2b 3e 21 bd 28 86 57 3d ab 97 4f bd
       0.0810111 -0.03936593 0.052618176 -0.05068175
000300 a9 cd 0c 3e 9b c9 25 bd a0 32 17 3d 0e 95 51 bd
       0.13750328 -0.04047547 0.036913514 -0.05116754
000310 70 50 3e 3d cb 15 95 bc ce 21 29 3d d1 2c 03 be
       0.04646343 -0.018198868 0.041292004 -0.12810065
