tcs_lstm_model.pth (torch, 216269 bytes, 15 tensors)

lstm.weight_ih_l0 f4 [200, 1]
000000 61 db 65 3d 99 bd 3c 3d 1c b9 76 3d cb 86 00 be
       0.05611742 0.046079252 0.060235128 -0.1255142
000010 45 cb 0d 3e 58 e1 40 3e d9 be f2 3d 88 7e 81 3d
       0.13847072 0.18835962 0.118528076 0.06322962
000020 2b 3a 86 3b 8f b6 0e 3e d5 17 4c bd b5 d6 2f 3e
       0.0040962896 0.13936828 -0.049827415 0.17171748
000030 f1 a9 e2 3d eb 8d 62 3c a3 76 2d 3e 84 69 a5 3d
       0.1106757 0.013827781 0.16939788 0.08076766
000040 2c 4a 4f 3e d2 c0 bc bc 1c 18 66 3e 34 ba 4f be
       0.20243138 -0.023041163 0.22470134 -0.20285875
000050 97 96 f8 3d f6 83 5f bd 0a b9 a0 bd fa 71 9b 3d
       0.12138098 -0.054569207 -0.078477934 0.07590099
000060 a0 63 3a 3d b1 dd 3f 3e 97 16 b7 bd 6d e8 11 be
       0.045505166 0.18736912 -0.089398555 -0.1424882
000070 78 d9 95 3d 8b 24 54 be e7 5c 7d 3d 39 ab 93 3d
       0.073168695 -0.20717065 0.061856177 0.072103925
000080 0b b3 ab 3d ce ff db bc a8 31 36 3e ce 7d c7 3d
       0.08383759 -0.026855376 0.1779238 0.09740792
000090 a2 6c 75 3d 8c 78 05 be 79 1c c4 bd 49 59 37 3d
       0.059918053 -0.13034266 -0.09575743 0.044762883
0000a0 ec 5e 5c bd 41 52 04 3e 50 ea db 3d b3 7a bf bd
       -0.053801462 0.12922002 0.10738051 -0.09349575
0000b0 a6 ec 23 3e c9 84 3a 3e 83 de fe 3b 37 f5 fb 3d
       0.16008243 0.18214716 0.0077779903 0.123026304
0000c0 f3 2c 84 3d ed 19 2b 3e 31 ab 3a 3d 0b 6f 30 3e
       0.06453886 0.16709109 0.045573417 0.1722986
0000d0 49 ba 42 3e 19 72 61 3c ac 96 26 3e e9 56 73 3e
       0.19016375 0.013760113 0.16268414 0.23763622
0000e0 f5 b8 47 3d 43 31 7b bd ec 0d 9f 3d d8 87 f8 bc
       0.048760373 -0.061326277 0.07766327 -0.030338213
0000f0 ca d6 3a 3b 69 ae aa 3d ff e7 1e bd 34 a5 25 3e
       0.0028509372 0.08334047 -0.038795467 0.16176301
000100 9f f2 47 3d a5 ec 07 bd 64 17 1a 3d fa a4 b2 ba
       0.048815366 -0.033184666 0.037619963 -0.0013629489
000110 9c c0 13 bb 47 5f 01 be de f0 2f bd f9 dc 24 3d
       -0.0022545224 -0.12634002 -0.04295432 0.0402498
000120 99 10 7e be 91 0d 66 3d db b2 83 bd e5 d9 50 3e
       -0.24811019 0.05616528 -0.06430598 0.2039562
000130 0f 28 5a 3d 85 ad 8b bd 51 19 62 bd 34 00 df bd
       0.05326086 -0.068202056 -0.055199925 -0.108887106
000140 f1 4b 37 3e 8d 1f d8 bd 99 c8 0a 3e ea e9 39 be
       0.17900063 -0.10552893 0.13553084 -0.18155637
000150 ec ab 24 3d e5 73 a6 3d 75 d1 2d bd bd 9a 33 be
       0.04020302 0.08127574 -0.042436082 -0.17539497
000160 32 f9 30 be 61 75 df 3d 3a 53 5b 3e 44 5f 20 bc
       -0.1728256 0.1091106 0.21418467 -0.009788338
000170 82 33 06 3e 08 81 fa 3d a1 a3 00 bc 18 f5 dd 3d
       0.13105586 0.12231642 -0.007851512 0.108377635
000180 f8 70 c9 bd 1a e4 07 bc 97 e2 41 3d bf 40 84 bd
       -0.09836 -0.00829413 0.047335234 -0.06457662
000190 6b c5 71 be 47 6e 0c 3e 0c 5a 78 be 7d 1d f9 bd
       -0.23610465 0.13713942 -0.242531 -0.121638276
0001a0 8b a1 bf 3d 37 48 28 3e 69 e8 f2 bd be 22 3d 3e
       0.09356984 0.16433798 -0.11860735 0.18470284
0001b0 16 9c 6b 3e 33 ff f6 bd bb 81 70 be ad 15 06 3e
       0.23008761 -0.12060394 -0.23486988 0.13094206
0001c0 30 da 15 3e b1 cd 0c be 63 d7 5e 3e 2e ee 03 3e
       0.14634013 -0.1375034 0.21761851 0.12883827
0001d0 66 2a 46 3e c6 8f 1e be 3f 4c d9 bd 24 b9 ae bd
       0.19352111 -0.15484533 -0.10610246 -0.085314065
0001e0 dc 36 1c be 08 48 57 3e 8a 85 13 be c2 b8 67 be
       -0.15255302 0.21023571 -0.1440641 -0.22629073
0001f0 21 0d 23 be bd b8 91 bd 88 21 1c be a0 02 af bd
       -0.15922977 -0.07115314 -0.15247166 -0.085454226
000200 50 e2 57 be c3 64 86 bd 7d 35 40 3e 8d 1a 3d 3e
       -0.21082425 -0.065621875 0.18770404 0.1846716
000210 5e 1a 71 3e 3d 5d d4 bd 43 d5 48 be 47 bf 25 be
       0.23545215 -0.10369346 -0.19612603 -0.16186248
000220 ba 12 68 3e 03 ba 81 3e ed 45 12 3e 47 dc 2c be
       0.22663394 0.25337228 0.14284487 -0.16880904
000230 a9 79 5d 3e ae 86 bb bd 6c 7e 1a 3e 9c 37 05 3e
       0.21628441 -0.091565475 0.15087289 0.13009495
000240 14 64 2d 3e f4 f0 2d be 2a 71 b4 3d 03 52 63 3d
       0.16932708 -0.16986448 0.08810647 0.055498134
000250 2c fa 4a 3e 98 d8 7c be b8 20 21 3d 71 06 29 3e
       0.19821995 -0.24691999 0.039337844 0.16506363
000260 85 03 00 bd 32 b9 20 3d 49 49 87 3d 8d 2c d1 3d
       -0.031253356 0.039239116 0.06605775 0.102135755
000270 6f 01 b6 bd 29 4c 16 3e 5f b8 35 3c c9 33 67 3d
       -0.08886992 0.1467749 0.011091321 0.05644587
000280 ee a2 66 3e 1b 28 7b bd ed 95 e2 3d dd 6e be 3c
       0.2252309 -0.061317544 0.11063752 0.023246223
000290 e4 7f b3 bc a8 8f 89 3b fa 6f 38 3c 41 1b 7e bd
       -0.021911569 0.0041980334 0.011257166 -0.06203771
0002a0 99 e8 14 3d 03 56 4c be c8 eb d0 3d 72 0a ba 3d
       0.036354635 -0.19954686 0.10201222 0.090840235
0002b0 80 c0 b9 bd 11 28 71 3d 92 0c 1a 3e c5 8a 52 3d
       -0.090699196 0.0588761 0.15043858 0.051401872
0002c0 5e 0e 0a 3e 97 9c a1 bd 08 dc 29 3e 38 2a 8b bd
       0.13482043 -0.07891195 0.16587842 -0.06795162
0002d0 40 a6 9c 3d 3a d1 1c be 99 e8 21 3e 06 db 84 be
       0.07648897 -0.15314189 0.15811385 -0.25948352
0002e0 8c 37 58 3e 1f fe 1e 3d 26 77 f8 3c 77 fc 49 be
       0.2111494 0.038816568 0.030330252 -0.19725214
0002f0 5c 80 bf bd 8d 25 a7 3d 7f 87 fa 3d 2c fe db 3d
       -0.093506545 0.08161459 0.12232875 0.10741839
000300 47 93 26 3e 2b 7a c4 bc 52 76 d1 bc 12 04 1f 3c
       0.1626712 -0.023984035 -0.025569115 0.00970556
000310 b0 ab 3f 3d 9a 25 ab 3d aa 7c 27 3c 5d 36 a1 3d
       0.046794593 0.08356781 0.010222593 0.07871697

lstm.weight_hh_l0 f4 [200, 50]
000000 78 28 3e 3c fe c4 a5 ba d6 c4 4e 3d fa 66 34 bd
       0.011606328 -0.0012647209 0.050480686 -0.04404352
000010 d7 a8 9a bd 20 ef c7 bd 61 82 90 bd 9b 0f 81 bd
       -0.07551735 -0.09762406 -0.07056118 -0.06301805
000020 25 04 2d 3e cc 2d 65 bd 14 50 22 be 05 bc cd bd
       0.16896112 -0.05595188 -0.1585086 -0.100456275
000030 27 db ba 3d bc 47 9d bd e8 83 f9 3b 41 3b 0a 3e
       0.09123831 -0.07679698 0.0076146014 0.13499166
000040 b2 fe f2 3a b0 42 40 be cd 84 e6 bd 96 11 ba bd
       0.001853904 -0.1877544 -0.112557985 -0.090853855
000050 c0 e5 c4 3d 4c 5b ae bd ed d9 b0 3d 6e 23 0b be
       0.09614134 -0.08513507 0.08635316 -0.13587734
000060 76 43 e0 bd 0a 87 c2 3d 7d 94 e0 bc 20 b5 80 bd
       -0.10950367 0.09498413 -0.027414555 -0.06284547
000070 88 01 ab bc ef 5f b2 bd 0f 45 17 3e c2 9a 75 3c
       -0.020874754 -0.08709704 0.14772438 0.01499051
000080 0c 5c 45 bd 25 a2 e4 bc b2 26 28 be ee b3 c5 bd
       -0.048183486 -0.027909348 -0.16421011 -0.096534595
000090 2e 34 24 be 20 bb 3d bd 18 6e 69 bd ad 4f cc bd
       -0.1603553 -0.046321034 -0.05698976 -0.099761344
0000a0 e5 10 d8 3d 31 7e e3 3b 24 cb d8 bd 34 80 87 bb
       0.105500974 0.0069425334 -0.10585621 -0.004135156
0000b0 2d 10 f2 3d d1 90 43 3d 9f ba c6 3d f3 03 85 bd
       0.118194915 0.04774553 0.09703564 -0.06494894
0000c0 bc 26 c8 3d 99 6a 25 3b 11 b3 43 bd cf 47 9b 3c
       0.09773013 0.002524054 -0.047778193 0.01895514
0000d0 8c d8 f3 bd 4a e1 d3 3d 72 bd f2 3c 63 a5 d3 3c
       -0.119065374 0.10345705 0.02963135 0.025835698
0000e0 51 a2 c3 3d de d4 9e bd 92 38 15 bd f3 43 b4 bc
       0.09552444 -0.07755445 -0.036430903 -0.022005057
0000f0 62 d2 9c bd f9 74 ee 3d 56 02 58 bd 74 c1 18 bd
       -0.07657315 0.116434045 -0.052736603 -0.037293866
000100 d5 e5 84 3d d5 e7 e6 3d 6f 7a 81 3d dc 36 af bd
       0.064891495 0.11274687 0.063221805 -0.085553855
000110 3d df ab 3d 15 9f a2 3d e6 fc b3 bd 37 d4 fb 3d
       0.08392189 0.07940499 -0.08788471 0.12296336
000120 39 6e b7 3b f5 7f 9a 3d dd 36 ed bd ae e9 23 3c
       0.0055978564 0.07543937 -0.1158273 0.010004444
000130 1f e5 92 3d c7 d1 5a 3d e3 4b 0f 3e 3d 74 91 3c
       0.07172608 0.053422716 0.13993792 0.017755622
000140 e0 51 71 bc 67 8d ab 3c 90 73 fb bd cf 72 7f bd
       -0.014728993 0.02094145 -0.12277901 -0.06236535
000150 00 08 ac bd 55 4a 00 3e 77 52 07 3e 3b d8 0d 3e
       -0.083999634 0.12528355 0.13215052 0.13852017
000160 d1 99 84 3c 07 7d 00 3e 32 7b d7 bd 10 35 1c bd
       0.016186627 0.12547694 -0.105215445 -0.03813654
000170 fe d2 04 be be 26 0f bc 79 ef 00 bc 97 55 95 3d
       -0.12971112 -0.008737264 -0.007869595 0.072917156
000180 18 c7 3c 3d b2 05 d7 3d 93 59 9b bc 73 12 c2 bd
       0.046088308 0.10499133 -0.01896361 -0.09476175
000190 0c f2 03 be 25 00 33 3e 4d cc e9 bd 50 39 7f 3d
       -0.12885302 0.17480524 -0.114159204 0.062310517
0001a0 3d 23 1a 3e 28 a4 02 bd 5e 9d a5 3d 4d 5c 5e bd
       0.15052505 -0.031894833 0.08086656 -0.054287244
0001b0 e2 86 e0 3d e8 1a a2 bd 67 1a d5 bd 74 c6 02 3d
       0.10963227 -0.07915288 -0.104054265 0.03192754
0001c0 c3 44 3d 3d 95 e3 23 bd 51 d2 3a 3e 89 dd 29 3e
       0.046208154 -0.04001196 0.18244292 0.16588415
0001d0 d3 39 59 bd d1 4e 9d bd e1 35 c7 bd ea a8 40 3d
       -0.05303366 -0.07681049 -0.097270735 0.04703609
0001e0 91 30 e6 3b 97 e7 82 bc b2 8f 4c 3e 40 6d 5e 3d
       0.0070248325 -0.015979571 0.1997669 0.054303408
0001f0 af 73 0d bd 89 72 d8 3c 50 9d 7b 3d 90 bb 7c 3d
       -0.034534153 0.026421802 0.06142932 0.06170231
000200 bb 69 e7 bd fe d3 9a 3c 2a 0a df 3d 1e 19 fb bd
       -0.11299463 0.018899914 0.108906105 -0.1226065
000210 77 32 fe 3d 88 16 94 3d d5 d9 8b 3d 18 5e 2d 3d
       0.12411969 0.0723086 0.068286575 0.042326063
000220 e0 1d 14 be ff 3c 8f bd 39 6f e4 3d fc a2 62 3c
       -0.14464521 -0.06994056 0.111540265 0.013832804
000230 5b 0c 31 bd a1 a6 d5 bc c3 ee e4 3c ae 0a 0c 3e
       -0.043224674 -0.026080431 0.027945882 0.13675949
000240 19 03 48 3c ad 35 85 bd 1d 03 21 be 86 ae ab bd
       0.01220777 -0.065043785 -0.15723844 -0.08382897
000250 e7 cf 30 3d b2 ef 05 3d 51 32 7a bd 67 49 c4 bc
       0.04316702 0.032699294 -0.06108314 -0.023960782
000260 1e 29 fb bd 99 65 bd 3c 6d 46 cc 3c 57 ad e4 3d
       -0.12263702 0.023119735 0.024935925 0.111658745
000270 24 32 24 3e 54 f0 49 3d f1 6c c9 bd 64 f6 9a 3d
       0.16034752 0.04930146 -0.09835232 0.075665265
000280 f1 4b a4 3d 39 93 a0 bc a4 b8 a3 3d 16 3e 1d 3d
       0.08022297 -0.019601451 0.07994202 0.038389288
000290 a9 8d f9 3c d5 9e 24 bd d3 02 d2 3d b8 15 59 bd
       0.030463057 -0.040190537 0.10254445 -0.05299923
0002a0 b7 b1 b9 3c 51 e9 3c 3d 2b 3f bc bd 1b 53 e9 bd
       0.022667749 0.046120945 -0.09191736 -0.11392804
0002b0 1c c5 88 bd 50 f3 07 3e 83 fd dd 3d 15 eb ed bd
       -0.06678221 0.1327641 0.10839369 -0.11617104
0002c0 b0 20 20 3e 11 6f 3e 3d 11 e0 d1 3c 0b 1f d8 bb
       0.1563747 0.04649264 0.025619539 -0.0065954975
0002d0 90 66 0b be d1 39 1c bd db 54 46 3d 47 bd 1f bd
       -0.13613343 -0.038141076 0.04842077 -0.03899887
0002e0 fd 11 02 3e b4 31 01 3e 3a 7e d5 3c 35 b3 ef bd
       0.12702174 0.12616616 0.026061166 -0.11704103
0002f0 19 63 da bd c0 d8 b9 3d 7d c2 0f be 2b c2 57 bd
       -0.10663433 0.09074545 -0.14039035 -0.052675407
000300 bc 17 9c bc d4 d3 06 be 5e 7a 95 3d 26 eb 6f bc
       -0.019054286 -0.13166744 0.0729873 -0.014643466
000310 ad a6 9e bd 79 cc 13 3e 4f 9d d3 3c 17 2e 8e 3d
       -0.07746635 0.14433469 0.025831847 0.06942385
000320 7b 8f 0b bd ad f1 c3 bd c6 3c 87 3d 5d 8b 3b bd
       -0.03407238 -0.0956758 0.066033885 -0.045787204
000330 ee e4 af bd ad 1a 15 3e c7 ad 9e bc 7f 15 b6 3c
       -0.08588587 0.14560957 -0.019369973 0.022227047
000340 55 2a 8b bd 81 e7 83 bd e0 01 49 3d ee 17 89 bd
       -0.067951836 -0.0644064 0.049074054 -0.06694017
000350 d6 c8 7f bd ee 0e f2 3c 73 e0 39 3d 1c 0d fb 3d
       -0.06244739 0.029548135 0.045380067 0.1225836
000360 22 20 02 be 1b b5 e0 bd 5b 11 18 be 0e f9 97 3d
       -0.1270757 -0.10972043 -0.1485037 0.0742055
000370 ba 4a a7 3d 47 6d 2b bd 00 ef b1 bc 0b f1 c3 bd
       0.0816855 -0.041852262 -0.02172041 -0.0956746
000380 88 95 e3 bc 5b 5a a9 3a c1 35 26 3d 20 38 3a 3d
       -0.027781263 0.0012920605 0.040578607 0.04546368
000390 c2 5d fc bc 06 14 8c 3b ca 14 fb 3d 51 49 e3 3d
       -0.030806426 0.004274848 0.122598246 0.11097968
0003a0 8f a0 3b bd 1e 95 87 3d 38 80 de 3d 57 a1 06 be
       -0.045807417 0.06620239 0.108642995 -0.13147484
0003b0 0d ae 9c bd 3a 27 8c bd b1 b7 94 3d 25 65 15 be
       -0.07650385 -0.068434194 0.07261599 -0.14589365
0003c0 e3 39 86 3d dd 92 ad bc 43 78 ef 3d 9d 46 03 bd
       0.0655401 -0.021188194 0.1169286 -0.032049764
0003d0 4d 5f 9d bd 3d 20 3b 3d 68 f5 b4 3d 7d 33 81 bc
       -0.07684193 0.04568504 0.0883587 -0.015771622
0003e0 2f 79 95 bd ef a7 31 be de 85 70 be 19 91 08 3e
       -0.072985046 -0.17349218 -0.23488566 0.133366
0003f0 24 ef 4b bd 1b 16 3c bd 7d af 18 3e af a0 c2 3d
       -0.04978861 -0.04591952 0.14910693 0.09503304

lstm.bias_ih_l0 f4 [200]
000000 ab 4e cc bc 25 eb c0 3d 4c 4c 7b 3d a9 87 ba 3d
       -0.024939856 0.0941985 0.06135206 0.09107906
000010 64 e9 eb bd e9 f6 cc bd 5f 0b f8 bd ec 55 eb 3c
       -0.11519125 -0.10008032 -0.12111544 0.028727494
000020 4d aa 3b bd 38 1f f3 3d 32 56 90 3d 22 99 97 bd
       -0.04581671 0.11871189 0.070476905 -0.07402255
000030 33 b3 6c bd 30 80 fe bd e8 7e b4 3d 30 9d 9b 3d
       -0.057788085 -0.124267936 0.08813268 0.075983405
000040 5d f8 9f bd b1 8e ed 3d 0b 2c c5 3d 27 8e 89 bc
       -0.078110434 0.11599482 0.09627541 -0.016791416
000050 66 5a bb 3d 76 c0 50 3d 80 8e a1 3d 3c 8a ce 3d
       0.091481015 0.050964795 0.07888508 0.1008496
000060 6c 32 7e 3c 6b 75 d6 3d 8f 43 9f 3d 87 0f a3 3c
       0.015514951 0.104716145 0.07776558 0.019904865
000070 a7 88 36 3e d9 7a 4f 3d ee c9 7f 3c 94 36 cb 3d
       0.17825566 0.050654266 0.015612109 0.09922519
000080 18 ee c7 3d 1e 71 7c 3d 73 c7 04 3e 02 65 b8 3d
       0.0976221 0.061631314 0.12966709 0.09003641
000090 d2 06 d6 bd eb d9 02 bd a0 d8 a1 3d 3d 1e ea bc
       -0.104505196 -0.031946104 0.07902646 -0.028578872
0000a0 2c 2b 25 bd d4 d5 3e bb 23 e6 8b 3d 3a 24 c1 3d
       -0.040324375 -0.002911915 0.068310045 0.09430738
0000b0 04 73 be 3d 4e 1c 8a bc 96 35 d0 3d 0c da 88 3d
       0.09299281 -0.0168592 0.10166471 0.06682214
0000c0 d8 44 af 3a c9 7b 1b 3d 90 e3 6d bd a6 dd 8b bd
       0.0013371957 0.037959848 -0.05807835 -0.068293855
0000d0 33 d6 2c 3e 30 16 06 be db 52 cc 3c e9 12 a0 3c
       0.16878586 -0.13094401 0.024941852 0.019540267
0000e0 73 0f bf 3d dd 08 a2 bd 0b c8 d0 bd 6a 10 e1 3d
       0.093291186 -0.07911847 -0.10194405 0.10989459
0000f0 b0 f1 56 bb b3 86 94 3d 6e dd 3a bd 0c 7a bb bd
       -0.0032797866 0.07252254 -0.045621328 -0.09154138
000100 36 53 8c 3d dc 6a 46 bd c1 fc a1 bd 06 4c 8c bd
       0.06851809 -0.048441753 -0.07909537 -0.06850438
000110 f2 44 c9 bd 15 a7 45 3d 18 6e 48 3d 40 0c 18 3e
       -0.098276034 0.048255045 0.04893312 0.14848423
000120 78 30 a1 bd a7 5d f1 3d 53 95 d2 bd 26 50 4e 3d
       -0.07870573 0.11785441 -0.102823876 0.050369404
000130 9f 7a 14 3d 06 67 f3 bb cd 1a 6e 3c 18 ec 4a bd
       0.036249753 -0.007428053 0.014532757 -0.049541563
000140 c1 15 ed 3d fb 73 4f 3c 62 17 8d 3d 37 88 c2 3d
       0.11576415 0.012661929 0.068892255 0.09498637
000150 4c c8 12 3e 0c 31 d2 3d 84 9b 7d bc e5 94 b3 3c
       0.1433422 0.10263261 -0.015478972 0.021921584
000160 53 43 9f 3d 9b b6 11 be 0e c1 9a 3d 09 02 b7 3d
       0.07776513 -0.14229815 0.075563535 0.08935935
000170 eb 38 3a 3b da 61 00 3e 52 dd d6 3d 25 da b7 3c
       0.0028415273 0.12537327 0.10491432 0.022442887
000180 48 67 04 3d 06 96 c7 bd 08 4f e3 3d 9a a0 33 3e
       0.03232506 -0.097454116 0.110990584 0.17541733
000190 64 36 9f 3d bb ee 83 3d ab 14 a2 bc 88 22 9f bd
       0.07774046 0.064420186 -0.019785246 -0.07770258
0001a0 5f 94 33 3d f8 de 24 bd 91 51 3d bd 65 c2 5a 3d
       0.04384267 -0.040251702 -0.046220366 0.053408045
0001b0 67 c0 99 3d 10 df e8 bc 97 71 d0 bd 9d 1c a6 bd
       0.07507401 -0.028426677 -0.101779155 -0.08110926
0001c0 29 14 c3 bd 2a 94 80 3d 6c c9 0e 3d b9 e9 48 3d
       -0.095253296 0.0627826 0.03486006 0.04905102
0001d0 78 2b 3c 3d 70 86 7b bc f7 62 ea bc 6f 41 02 3e
       0.045939893 -0.015351877 -0.028611643 0.12720273
0001e0 63 9e 1d 3d d5 d8 a1 bd b3 ed bd 3d dc 6d f1 bd
       0.038481127 -0.079026856 0.09273853 -0.11788532
0001f0 b7 e7 98 3d b9 5c 9e bc e9 45 e2 bd e8 27 14 3d
       0.07466071 -0.019331323 -0.110484906 0.03617087
000200 89 5a 67 bd b2 ff 3e 3d 31 36 41 3d dd 83 c5 bd
       -0.056482825 0.04663057 0.04717082 -0.096442915
000210 30 f9 10 be f3 ef 10 3d ba 90 fe 3c 1a 11 93 3d
       -0.14157557 0.035385083 0.03107487 0.07180996
000220 4f ee f0 bd 65 f1 d9 bd b4 3a 30 3d 58 12 c0 bd
       -0.11764204 -0.106417455 0.043024734 -0.09378499
000230 b2 e2 99 bd 98 ac 5b 3d bb 3a 13 3c 11 1e ae 3d
       -0.07513942 0.053631395 0.00898617 0.085018285
000240 67 3b ee 3d f9 75 ae bd 10 3d d5 bd bf b5 70 3b
       0.11632424 -0.08518595 -0.104120374 0.0036729423
000250 f2 7a bb bd a5 24 b6 3d 93 54 18 3e e2 75 7f 3c
       -0.09154309 0.08893708 0.14876013 0.01559207
000260 2a 46 04 3e 7d 24 ba 3d 97 6a f2 bd d8 fe da 3d
       0.1291739 0.09088991 -0.11836737 0.10693139
000270 9f f4 b0 3d c8 04 dc bb 9c 31 70 3d 2c 48 f6 3d
       0.08640408 -0.006714437 0.05864106 0.120254844
000280 53 da 09 3e 76 2c ad bd a2 85 00 3e 22 bc aa bd
       0.1346219 -0.08455746 0.12550977 -0.08336665
000290 83 53 9b 3d 0a 32 80 3d 3d c0 ac 3d 99 11 aa bc
       0.07584288 0.06259544 0.08435104 -0.020760344
0002a0 75 3b 88 bd 67 59 c6 bd 90 d7 86 bd ab 3a 0e 3c
       -0.066519655 -0.09685021 -0.06584084 0.00868098
0002b0 35 50 08 3d 47 84 3c bd b4 f0 f4 3b 34 17 8c 3c
       0.033279616 -0.046024587 0.007474983 0.017100908
0002c0 e1 9b c2 bd 3b f3 63 bb de 2f a4 3a 56 59 c9 3b
       -0.09502388 -0.0034782428 0.0012526473 0.006144683
0002d0 93 9b bb 3c 9c 87 17 bd 39 93 0e 3e 33 47 3f 3d
       0.022901332 -0.03699456 0.13923348 0.04669876
0002e0 26 c5 1a 3e f0 d4 fa bd f6 d0 0c 3d 94 ae 80 bd
       0.15114269 -0.12247646 0.03437897 -0.06283298
0002f0 2c 9a e6 3d 49 be 2f 3b c5 91 0c 3e c5 a4 a6 bd
       0.11259875 0.00268163 0.13727482 -0.08136896
000300 02 11 d3 bd e0 bb 86 3d 8f 1c cc bb 00 ac 0b 3e
       -0.10305978 0.06578803 -0.0062289904 0.13639832
000310 db fb b1 3d 4d 63 ba 3d 51 02 aa bd c3 25 90 3c
       0.08690616 0.09100971 -0.08301223 0.017596131

lstm.bias_hh_l0 f4 [200]
000000 c3 9c 70 3d 8b 88 e3 bd 22 78 ba 3a c9 57 a2 bd
       0.05874325 -0.11110028 0.0014226476 -0.079269
000010 1e fe 4e 3d 93 38 aa bd c9 cb ba 3c 10 22 a2 bd
       0.050535314 -0.08311572 0.02280225 -0.07916653
000020 c9 97 19 3e a8 23 f7 3d fb fc 2c bd 5e 83 a6 bc
       0.14999308 0.12067348 -0.04223345 -0.020326313
000030 bf 2e a4 bd 3a 48 7e 3d 83 ab 9e 3c 37 84 bd 3c
       -0.080167286 0.0620806 0.019368893 0.023134334
000040 b6 49 80 bd 2a 4e 5c 3d d9 d1 4c 3d 17 34 98 bc
       -0.06264059 0.05378548 0.050004814 -0.018579526
000050 ae 19 81 3d 17 59 1f 3e 30 90 4b 3d e1 3e 0e 3e
       0.06303726 0.15561329 0.049698055 0.13891174
000060 f4 9e 0d 3e 19 4a 8b bc 21 b0 be bd 0b 59 79 3d
       0.13830167 -0.017003106 -0.09310938 0.060875934
000070 18 97 5e 3d 03 5a 20 3c 4f e0 8b bd 09 dc 0e be
       0.054343313 0.0097870855 -0.06829893 -0.13951124
000080 d2 58 87 bd d6 79 f5 bd 17 f6 80 bd 15 f4 71 3d
       -0.06608738 -0.11986129 -0.06296938 0.059070665
000090 92 3e ad bd 68 77 c2 bd 4e 1a b0 bd ae 5e 03 be
       -0.084592 -0.09495431 -0.08598767 -0.12829086
0000a0 3e 2d cc bd 79 aa 15 3e b7 10 2d 3c 22 84 10 be
       -0.09969567 0.14615811 0.010563067 -0.14112905
0000b0 9c d5 8b 3d 8d 47 ca 3d 26 5a ca bb 30 a0 27 3d
       0.06827852 0.098769285 -0.0061752973 0.04092425
0000c0 d4 ea 17 3e 29 f0 92 3d ab f0 cd 3d 18 17 87 3d
       0.14835674 0.07174713 0.100556694 0.06596202
0000d0 e1 c3 6e bd b6 80 7d 3d fa 4a 5b 3d cb b1 82 3d
       -0.058292273 0.061890326 0.0535383 0.063815676
0000e0 67 e9 a6 3d df 00 8a bd d2 98 0b 3d 52 9d 1a bd
       0.08149987 -0.067384474 0.034081288 -0.03774769
0000f0 73 30 69 3d 75 10 1e bd d2 30 8e 3d 22 25 6f 3c
       0.05693097 -0.038589913 0.069429055 0.0145962555
000100 36 94 cb bd ff 90 9e bc 89 06 7b bd 70 70 4f 3d
       -0.09940378 -0.019356249 -0.06128553 0.050644338
000110 e0 a7 92 3d 25 96 6d bd 4e 8a d7 3d cd f8 99 bd
       0.07160926 -0.058004517 0.105244264 -0.07518158
000120 8c dd e9 bc 4d ed d9 3d b1 62 5c 3d 15 d2 ad 3d
       -0.028548025 0.10640965 0.053805057 0.084873356
000130 6c aa d5 bd 40 f4 ba 3c 6d 15 1b 3e 27 f6 fd 3c
       -0.10432896 0.022821546 0.15144892 0.031001164
000140 cd 9c b6 3d 63 45 05 be ca 60 de 3c d3 dd 51 bd
       0.08916626 -0.1301475 0.027145762 -0.05123694
000150 69 12 d9 bc c0 98 40 bd 28 81 a2 3d e3 8d 8d 3d
       -0.026498036 -0.047020674 0.07934791 0.06911828
000160 24 87 08 3c ad e7 3c bd 4b ad ca bc 63 7c ff 3d
       0.008333001 -0.04611938 -0.024740836 0.12474897
000170 37 e6 7a 3d f2 54 a4 bb d9 38 20 be 6e 98 5a bd
       0.061254706 -0.005015009 -0.15646686 -0.053368025
000180 51 73 00 be 1f 4b 9c 3d ba fe f7 bd 6e 9d cd 3d
       -0.1254399 0.07631516 -0.12109132 0.10039793
000190 30 a1 02 3c 6b ce ef 3b 7c e9 38 bb 8e e1 91 bd
       0.007973 0.007318308 -0.002821534 -0.07123099
0001a0 54 8d 9d bd af 86 60 3d b3 2d ff bc 50 37 90 bd
       -0.07692972 0.054815944 -0.03114972 -0.070418
0001b0 01 38 cf bd 89 00 3b 3d 33 88 e3 3d 73 32 c8 3d
       -0.10118104 0.045654807 0.11109962 0.097752474
0001c0 70 fa 3d 3d 4c 50 91 bd cb 63 82 bb a1 ee 86 bc
       0.046381414 -0.070953935 -0.0039791814 -0.016471209
0001d0 ed 47 92 3c 3c 31 b0 3c ed 6d dd bc 0e c2 8e 3d
       0.017856563 0.021507852 -0.027029956 0.06970607
0001e0 e3 dd 10 bd c7 30 95 3d 35 be 89 3d f2 6e cd 3d
       -0.035367858 0.07284694 0.06725732 0.10030927
0001f0 31 04 8c bd db 66 80 bd ea c6 ee 3c f9 85 96 3c
       -0.06836737 -0.06269618 0.029147584 0.01837443
000200 4f c6 00 3e 55 52 8b 3d c9 20 81 bd a7 7d df bd
       0.12575649 0.06802813 -0.063050814 -0.10912638
000210 7b e5 d2 3d 4c 75 94 3d 3a 3e ed ba f3 ff 04 be
       0.10297676 0.07248935 -0.001810021 -0.12988262
000220 b3 41 c1 bb 66 d2 0b 3d 39 60 a0 bd 03 9c 12 3c
       -0.0058977245 0.0341362 -0.07830853 0.008948329
000230 0d a2 19 3d cb 62 90 bd ad 0c c7 3d d3 ed b9 bc
       0.03750806 -0.07050093 0.097192146 -0.022696411
000240 c1 de 9e bc 7d 38 a7 3d 1a 6c d9 3d 26 09 9f bd
       -0.019393327 0.08165071 0.10616322 -0.07765417
000250 e5 85 35 3d 2c e9 3b bd 67 4f ba bb 9d 98 9c bc
       0.044317145 -0.045876667 -0.005685735 -0.01911574
000260 f7 ab 46 bc 91 1c 61 bd 6d 1a 48 bc 8a 60 ce 3d
       -0.012125961 -0.054958884 -0.012213332 0.10077007
000270 b0 9c 7c bd 06 b5 8a 3d 2e 1c ba 3d 48 f9 75 3d
       -0.061672866 0.06772809 0.09087406 0.060052186
000280 17 68 6e bb 9b 42 42 bd 12 91 cc 3d 80 f5 ae bd
       -0.003637796 -0.0474268 0.099886075 -0.08542919
000290 9e 5e e5 bc e3 fe 86 3d 00 ef 07 bc 71 fc 6c bd
       -0.027999219 0.065915845 -0.008296728 -0.057857934
0002a0 ec d6 53 3d d5 e7 a2 bd 13 34 24 3c 49 60 7f 3c
       0.051718637 -0.07954375 0.010022181 0.015586921
0002b0 f7 7d 38 bd d4 bb 13 3e 89 4a 97 3d b2 1a e3 bb
       -0.045042004 0.1442712 0.07387263 -0.0069306726
0002c0 af 45 c4 bd 9c 62 07 3e ff 08 25 3e 1f 3a f6 3c
       -0.095836036 0.1322121 0.16116713 0.030057011
0002d0 e8 6b e3 3c 6b f6 3f bc 28 12 08 3d c0 df a9 3d
       0.027761415 -0.0117164655 0.03322044 0.0829463
0002e0 e6 f5 11 3e c0 00 a4 bd ee 17 30 bd 9c 63 b7 bd
       0.14253959 -0.080079556 -0.04299157 -0.08954546
0002f0 86 19 aa 3b 17 91 01 bc 7f bb 5d bd 83 91 dc 3d
       0.005191031 -0.007908127 -0.05413389 0.10769942
000300 be d6 f5 bc 0b c4 0f be 4a d1 f1 3d 03 11 21 3e
       -0.030009624 -0.14039628 0.11807497 0.15729146
000310 fb bb d6 bd 5a 11 11 be 09 36 a8 3c 92 fe 40 3e
       -0.10485073 -0.14166775 0.020533578 0.18847111

lstm.weight_ih_l1 f4 [200, 50]
000000 53 17 0e be 5c 60 9f bd c6 2c 85 bc 4f d2 8f 3d
       -0.13876085 -0.07782051 -0.016256701 0.07022535
000010 e3 a0 a8 bd 6b a4 09 be 79 1c 87 bd f6 f3 40 3e
       -0.08233812 -0.13441627 -0.065972276 0.18843064
000020 d9 0c dd 3d b9 2a b3 3d 8e 4f 35 bd d8 56 18 3e
       0.10793466 0.08748383 -0.044265322 0.14876878
000030 6e 2b 15 bd d8 51 97 3d 7d af a8 3a 8b f6 5e bb
       -0.03641837 0.07388657 0.0012869682 -0.0034021463
000040 3d 6f 08 3e 79 2e 05 bd 54 5a ae bd 16 41 1e be
       0.13323684 -0.032515023 -0.085133225 -0.15454516
000050 66 36 9e bb 30 af ea ba 27 33 0e be 8c fe 82 3c
       -0.004828262 -0.0017904993 -0.138867 0.015990518
000060 10 5a f7 bd 47 32 24 3b e3 41 ad bd a3 80 6b bd
       -0.12077725 0.0025054382 -0.084598325 -0.057495724
000070 02 65 12 bc 11 2c d6 bb d0 f5 33 3e 28 dd cf 3c
       -0.008935215 -0.006536015 0.17574239 0.02537401
000080 26 48 2d 3e 09 8e 3a bc 9c 9e ac bd 8b ff c8 bc
       0.16922054 -0.011386403 -0.0842869 -0.024535915
000090 55 9b 3a 3e c1 86 56 bc 12 5b a3 3d b6 ba a4 bd
       0.18223317 -0.013093651 0.07976355 -0.08043425
0000a0 db b4 6f bd e9 14 59 3d dc 3b 2e 3b 7e d4 0e 3e
       -0.058522087 0.052998457 0.0026585972 0.13948247
0000b0 83 e6 f5 bd 65 26 d0 3d 7c 05 d4 3d 47 db 89 3c
       -0.12006857 0.10163573 0.103526086 0.016828192
0000c0 b8 03 15 3e b4 9a 1e 3d 7a 94 0d be 48 ec d5 bd
       0.145522 0.038721755 -0.1382617 -0.10445458
0000d0 3c 10 01 3e 66 ef 49 b9 b1 41 03 3e 03 59 ba 3d
       0.12603849 -0.00019258037 0.12818028 0.09099009
0000e0 66 de 53 3d ed ad 8a bd 8f a6 1a bc 92 44 21 bd
       0.051725768 -0.06771455 -0.009439125 -0.039372034
0000f0 9d 07 18 be 1d 86 11 3d 28 f9 26 3e c8 bb 1c be
       -0.14846654 0.03552829 0.16305983 -0.15306008
000100 54 a7 00 3e 87 34 ea 3d d4 0e bb bc f1 14 09 bd
       0.1256383 0.114358 -0.022834219 -0.033467237
000110 5c d3 89 bc f7 2f 0a 3c c5 aa cc bc 84 96 e3 bd
       -0.016824417 0.008434287 -0.024983773 -0.11112693
000120 87 97 aa bd 95 b9 62 bd 30 e7 63 bd d1 a2 89 3d
       -0.08329683 -0.055352766 -0.0556404 0.06720508
000130 45 10 1b be 50 87 20 3c d8 d7 ac bd 66 de c2 3d
       -0.15142925 0.009797886 -0.084396064 0.095150754
000140 9e 86 10 3e e8 cf ae bd 87 1f b3 bd ec 33 4d 3c
       0.14113852 -0.08535749 -0.08746248 0.012524586
000150 2b 51 02 be 51 c9 b1 bd 53 0b 3a 3e bc 51 0f 3e
       -0.12726276 -0.08680976 0.18168382 0.13996023
000160 b1 7f a5 bd 9a b7 1a 3d f0 49 2e 3e 51 5e 2d bc
       -0.08080996 0.037772752 0.17020392 -0.010581569
000170 72 e4 f1 3d 52 18 98 3d e5 3a 07 3e ff 4b f7 3c
       0.118111506 0.07426514 0.1320606 0.030187605
000180 6b ff 25 3d 85 5d 08 be 05 15 3a 3e fe 04 2f be
       0.04052679 -0.13316925 0.18172081 -0.17091748
000190 c2 a9 99 3c 14 bd ae bd 85 3f 25 3e 26 b4 2d bd
       0.018757705 -0.085321575 0.16137512 -0.04240813
0001a0 01 e8 90 3d 4a 28 a2 bc 78 da 0b be dd aa 3e bd
       0.07075501 -0.019794602 -0.13657558 -0.046549667
0001b0 fd 7f 16 bc e8 4f 5e bd 1d 06 e1 3d c1 4f 4c 3d
       -0.009185788 -0.054275423 0.10987494 0.049880747
0001c0 7c 62 e8 bd 70 d3 ac 3b 7f 82 81 bd 27 43 11 3e
       -0.113469094 0.0052742288 -0.06323718 0.14185773
0001d0 3f 0c 8a bd 08 15 b6 3d ff 13 88 bd 01 5d da 3d
       -0.06740617 0.0889073 -0.06644439 0.1066227
0001e0 bd 1a 8f 3d 33 ba 7d 3c 7e 1d 84 3d d6 37 00 3d
       0.06987522 0.015486288 0.06450938 0.03130325
0001f0 c0 8e fe bd b9 6f 89 3d c2 78 2a bd a3 f5 2b be
       -0.12429571 0.067107625 -0.04161907 -0.16792922
000200 2c f9 e6 3d c3 9f 0e bc 68 0f 27 3d 71 34 87 3c
       0.112779945 -0.008705082 0.040786177 0.016504498
000210 6b aa 84 bd 4d 22 0e be 42 48 f8 3d 68 5f 12 be
       -0.06477817 -0.13880272 0.12123157 -0.14294207
000220 ba e7 ae 3d e3 26 fb 3d 3d cb 44 3d 84 4a 85 bc
       0.08540292 0.122632764 0.048045386 -0.016270883
000230 cc f8 a4 bc 3a 01 cd ba 82 1e 37 bd 4b d6 7c bd
       -0.020138167 -0.0015640624 -0.04470683 -0.061727803
000240 92 81 e2 3d 76 99 64 bd 66 33 04 3e 4d e9 a4 bd
       0.1105987 -0.055810414 0.12910232 -0.08052311
000250 10 a1 30 bd 8a 7d 14 be 55 80 0f 3d 66 24 34 bd
       -0.04312235 -0.14501014 0.035034496 -0.043980025
000260 3e d3 98 bb b2 48 0e 3e ec cb d8 bb ae 82 d2 bd
       -0.004663854 0.13894919 -0.0066161063 -0.102788314
000270 74 2a ab 3d 8b 3a 26 bd c1 a4 83 bd e9 c7 59 bd
       0.08357707 -0.040583175 -0.06427909 -0.053169165
000280 35 83 b8 bc ca 8f 0d be 5e 5d b4 bd de 88 7a bd
       -0.022523502 -0.13824382 -0.08806871 -0.061165683
000290 20 ba 09 bc 63 53 11 3e 07 8f 18 bd 8c ec 79 3d
       -0.008406192 0.14191966 -0.037245777 0.061016604
0002a0 a6 ce e5 3d 2b 54 20 bd ee 77 ad 3a 0a 00 3d bc
       0.11221056 -0.03914277 0.0013234594 -0.011535654
0002b0 70 95 a8 3d 27 0c ae bd d4 f5 14 bd 9f cf cf 3c
       0.08231628 -0.084984116 -0.036367252 0.025367556
0002c0 2b 2b 94 3b c8 44 3b 3d 9c 84 da bd f9 7b 96 bd
       0.0045217476 0.04571989 -0.106698245 -0.07347865
0002d0 75 9e fa bd 10 fa b1 3d a5 3c d3 bd 48 f0 26 3d
       -0.122372545 0.08690274 -0.103143014 0.040756494
0002e0 b9 99 ee bc 09 53 00 3e 38 3f a9 bd be 01 b9 bd
       -0.029126035 0.12531675 -0.08264011 -0.090335354
0002f0 cf 53 de 3c 67 97 09 bd ad 06 01 bc 50 9c 61 3d
       0.027139572 -0.033591654 -0.007875127 0.05508071
000300 1f e6 4b bd e3 30 fd bd d8 46 f3 3c 08 00 e5 bd
       -0.049780007 -0.1236284 0.029696867 -0.111816466
000310 32 fe d5 3c fb 9d 8c bd 13 56 65 3c cf 48 92 bb
       0.026122186 -0.0686607 0.0139975725 -0.004464246
000320 97 49 60 3d 6e 6d b2 bd 62 0a 2a 3e 75 22 96 3d
       0.05475768 -0.08712278 0.16605523 0.07330791
000330 bd a9 ef bd 7c 7c 0c be e7 52 50 3d 02 32 d0 bd
       -0.11702297 -0.13719362 0.05086031 -0.10165788
000340 f4 6e 5b bc 60 c6 66 bd e2 b8 67 bd 8a 71 b9 bd
       -0.0133931525 -0.05634153 -0.056572802 -0.09054859
000350 50 96 c5 3c fa 61 d9 3c d3 5d 57 be bc 08 a9 3d
       0.024119526 0.026535977 -0.21031885 0.08253619
000360 c1 94 25 bd 57 87 29 3d 0a f4 15 3e bb 1f 92 3c
       -0.040425066 0.041388836 0.14643875 0.017837396
000370 55 9f e3 3d ca 56 6d bd b5 1a fa bd 8b ef 0c 3e
       0.111143745 -0.057944097 -0.12212125 0.13763253
000380 e9 5f cc 3c ff 0d 98 3d bb 93 39 bd 4c bd 70 bd
       0.024948077 0.074245445 -0.045306902 -0.058774278
000390 51 25 a6 3d dd b2 b5 bd 70 ba 0e be 0c 00 08 be
       0.08112586 -0.08872006 -0.13938308 -0.13281268
0003a0 5b fa 2e 3d ab 7f 03 be 4e 41 19 3e 61 99 ce 3c
       0.042719226 -0.1284167 0.14966318 0.025219621
0003b0 6b df 73 3d 49 cb 05 3e d7 44 cd 3d 74 81 aa bd
       0.05953924 0.13065828 0.10022896 -0.083254725
0003c0 e9 22 d2 bd cc c6 26 3e 72 71 62 bd f1 4f 14 bd
       -0.10260565 0.16286772 -0.05528397 -0.03620905
0003d0 a4 b4 a6 bd db 7f 7e bd c2 9b b7 3d 1a af 0d 3d
       -0.08139923 -0.06213365 0.08965255 0.034590818
0003e0 7e f3 07 bc c7 0e 60 bd 69 cf 8a 3d 32 5e cf bd
       -0.008297799 -0.054701593 0.067778416 -0.10125388
0003f0 64 79 41 3e d6 1e 0d 3d 3c f4 e0 3b 86 2c 80 bd
       0.18893963 0.034453236 0.0068650525 -0.06258492

lstm.weight_hh_l1 f4 [200, 50]
000000 84 11 f7 bc 6a 25 41 bd 77 ca d8 bd 5e 20 a8 bd
       -0.03015972 -0.04715482 -0.10585492 -0.082092986
000010 29 3f 1c bd 14 9a f7 bd 12 de 93 3c d8 64 f1 3d
       -0.03814617 -0.12089935 0.018050227 0.117868125
000020 6b 14 59 3d 62 00 0a 3e a1 57 10 3c d5 0b 7e 3d
       0.052997988 0.13476709 0.008809955 0.062023003
000030 8c 24 ee bd 93 c1 14 be 32 3f 81 3c 33 e1 b2 bd
       -0.116280645 -0.14526968 0.015777204 -0.087343596
000040 18 3e 55 bd 27 c1 00 bd fe 39 6a 3d b6 33 c9 bd
       -0.05206117 -0.031434204 0.057184212 -0.09824316
000050 4c 54 9d 3d 02 12 a5 3c ff 7e b0 bd 8a 86 d7 3d
       0.07682094 0.020150188 -0.086179726 0.10523708
000060 e6 69 7b 3d a9 03 d5 bd a5 aa bf bd 9a 15 a1 bc
       0.06138029 -0.10401089 -0.0935872 -0.01966362
000070 13 47 a0 bd 19 d4 06 3e 2e 36 7a bc 8c 1f 1b bd
       -0.07826056 0.13166846 -0.0152717065 -0.037871882
000080 04 09 ba bd 6e cf 7d 3d 27 3f fa bd 36 05 03 3d
       -0.09083751 0.0619654 -0.122190766 0.03198739
000090 e8 7a ee 3d 28 e7 a7 3c 8e 8f 38 bd 69 77 00 3d
       0.11644536 0.020495966 -0.04505878 0.03136388
0000a0 70 b5 b0 3d 3b 09 eb bc 15 20 87 3b 80 d6 88 3d
       0.086283565 -0.028690925 0.0041236975 0.06681538
0000b0 34 f6 bf bc ba 67 0f 3c 65 5e ef bd a0 12 b9 3d
       -0.023432828 0.008752758 -0.11687926 0.090367556
0000c0 a8 f4 a6 3d ee a3 8c 3c cd 24 2e 3e c6 31 17 bb
       0.08152133 0.017168012 0.17006226 -0.0023070439
0000d0 bc f1 fc bc c2 e3 b1 3d 4a 49 7b 3d 3c 20 7b bc
       -0.030876987 0.086860195 0.06134919 -0.0153275095
0000e0 69 9b f1 bc e4 85 90 bb d9 0b ee bd 6b 92 03 bd
       -0.02949305 -0.0044104923 -0.116233535 -0.032122057
0000f0 99 89 cf bd 98 29 ea bd 65 ed 05 be c8 34 a1 3d
       -0.101336665 -0.11433715 -0.1307884 0.07871395
000100 be 90 8e 3c 64 ae ad bd e5 88 71 bd b9 c0 ce 3c
       0.017403003 -0.08480528 -0.058968443 0.025238382
000110 29 3a f5 3b 91 b8 9e bd 19 81 d8 3d b9 95 2c bb
       0.00748374 -0.07750047 0.105714984 -0.002633436
000120 55 6f d1 bd 99 ff 97 3d ed ce c1 3d 4c f5 a0 bd
       -0.10226313 0.07421798 0.09463296 -0.07859287
000130 d3 60 09 3d 2d e0 be 3d 47 10 08 be 4e b4 07 be
       0.033539604 0.09320102 -0.1328746 -0.13252375
000140 a7 0e a2 3d 6e 83 72 bc 62 b8 7d bd 92 88 3c 3c
       0.07912951 -0.014801843 -0.06194342 0.01150717
000150 38 40 3d bd 9a ea 85 bd 3f 67 14 3e 5d 91 31 3d
       -0.046203822 -0.06538887 0.1449251 0.04335152
000160 3f 27 13 3d f3 44 e5 3d 47 f7 4c bc bf d3 0f 3d
       0.0359261 0.11194792 -0.012510127 0.035114046
000170 d5 d5 9e bd b1 99 f2 3b f4 2c 17 bd f4 d7 d3 3d
       -0.07755629 0.0074035753 -0.036908105 0.10343924
000180 50 96 60 bd b2 eb 05 bd d5 b8 83 bd de 85 2b bd
       -0.05483085 -0.03269548 -0.06431738 -0.041875713
000190 52 58 e7 bd c8 5c b0 3d 1d 36 8d bd 7e 86 bc bd
       -0.11296143 0.086114466 -0.06895087 -0.0920534
0001a0 1a 9a fa bd 3f 67 1d be 7d 3b 0e 3d 56 5a 10 be
       -0.12236424 -0.15371417 0.0347247 -0.1409696
0001b0 b5 f6 00 3c fb b0 1c 3d 65 cd a6 bd e0 70 a5 3d
       0.00787132 0.03825472 -0.08144645 0.0807817
0001c0 0c 86 d2 bd 32 bd f3 3d f5 bb 75 bd 8b 1b a7 3c
       -0.10279474 0.119013205 -0.059993703 0.020398876
0001d0 e2 46 06 3c 01 18 92 3d dd e1 6e 3d bd b1 2a bd
       0.008195611 0.07133485 0.05832087 -0.04167341
0001e0 da fc 85 3c a8 a2 35 bd 39 7f 99 3d 01 58 89 3d
       0.01635592 -0.044344574 0.07494969 0.067062385
0001f0 6f d2 e9 3d f3 11 c8 bd f1 2f 02 bd 50 1c 4b 3d
       0.1141709 -0.097690485 -0.031784 0.049587548
000200 2e cb d8 bd 57 af f9 3d eb f9 e0 bd 5b 6b 8d bd
       -0.105856284 0.121916465 -0.10985168 -0.06905242
000210 73 43 70 bd a8 0a 5d bb 54 63 12 be 45 d5 12 3d
       -0.058658075 -0.0033728275 -0.14295703 0.03584792
000220 ba c9 c0 bd ff 1c 8b bd 40 99 c7 3d 52 f6 ba 3a
       -0.09413476 -0.0679264 0.09746027 0.0014264083
000230 97 d3 c0 3d e1 51 81 3c 67 6a 89 3d 2e 8d 8f bd
       0.094153576 0.015786113 0.06709748 -0.0700935
000240 77 b6 00 3d d4 f2 bd bd d6 34 57 ba 64 ab 98 3d
       0.031424012 -0.092748314 -0.0008209472 0.07454565
000250 5e 01 91 3d 54 ca e9 3d 0d 1e 10 3d 88 37 d9 bd
       0.07080339 0.11415544 0.03518491 -0.10606295
000260 52 e5 78 bd 1c d8 01 be 59 91 c8 bc 24 23 d5 bd
       -0.060765572 -0.12680095 -0.02448337 -0.10407093
000270 2a 8b 80 3d c5 34 19 bd f8 6f 0e bd 03 98 dc 3d
       0.062765434 -0.03740384 -0.03477475 0.107711814
000280 4e 3d b0 3d 27 8b 83 bc 50 a8 0f 3e 4f d5 c5 3b
       0.08605443 -0.016057564 0.1402905 0.0060373913
000290 67 28 08 be 72 4c bb bd 7b ad 52 3d a1 17 a6 bc
       -0.13296662 -0.0914544 0.051434975 -0.020274939
0002a0 cc a6 d4 bd 2d 15 cd bd 97 b2 e4 bc d4 aa 0a be
       -0.103833765 -0.100138046 -0.02791719 -0.13541728
0002b0 ca a4 74 bd 58 a8 99 bd fc 26 ae 3d 84 b4 17 bd
       -0.059727468 -0.07502812 0.085035294 -0.037037387
0002c0 58 00 c5 3c 68 4f c6 3d a4 69 cd bd 6d 1f c7 3c
       0.024048015 0.09683114 -0.10029915 0.024306977
0002d0 d4 92 9b 3d fd 6c 8f 3c 7a e6 83 bd d8 91 05 bd
       0.075963646 0.017508024 -0.06440444 -0.03260979
0002e0 80 58 1a be ca 87 b6 bd 73 2c 90 3d 44 26 38 bd
       -0.15072823 -0.089126185 0.07039728 -0.044958368
0002f0 91 a8 3e bd a8 60 00 be 50 84 9d bd 61 72 fb 3d
       -0.046547476 -0.12536871 -0.07691252 0.122776754
000300 27 ec 1e 3d 85 2c a4 bd 08 39 02 be 5c 82 c8 3d
       0.03879943 -0.08016304 -0.12717068 0.09790489
000310 75 74 59 bd a6 5b d1 3d e0 8f 8a 3d 28 c0 ee 3d
       -0.053089578 0.10222559 0.06765723 0.11657745
000320 da ae 88 bd 37 29 8f 3d 79 1f a5 3d 30 53 30 3d
       -0.06673975 0.06990283 0.080626436 0.043048084
000330 60 a1 b3 3d a1 1d bc 3d ce f8 83 bc be 76 d3 bd
       0.08771014 0.09185339 -0.01610985 -0.10325383
000340 79 7d 44 3c 18 5d d6 3d b5 5b 66 3d 2b 30 ca 3d
       0.011992806 0.10466975 0.056239802 0.098724686
000350 27 a9 33 bd de 2b d5 ba e9 86 b8 bd 62 99 b2 3d
       -0.043862488 -0.0016263684 -0.09010107 0.08720662
000360 d2 cb 47 3d 4c 22 bf bc af fb 8c 3d fc 7d 74 bd
       0.048778363 -0.023331784 0.06883942 -0.05969046
000370 bb 50 83 bc 89 e9 09 3d c3 4b 04 3e 96 29 e2 bd
       -0.016029706 0.033669982 0.12919526 -0.11043088
000380 05 d7 d8 3d d2 87 4a bc 4c c8 a1 bd de 43 f4 bc
       0.10587887 -0.012361484 -0.07899532 -0.029817518
000390 95 f6 2f 3c 9c 7e 8d bd 3f 9b 42 3d 6a 4f 64 bc
       0.010739942 -0.069089144 0.047511335 -0.013934949
0003a0 b3 c2 15 3e ae f1 17 bd 11 16 17 be ed ed 6a 3d
       0.14625053 -0.037095718 -0.14754511 0.05735581
0003b0 d7 51 00 3d 18 b5 67 3c 3e 96 07 3e f5 06 3e bd
       0.03132805 0.014142297 0.13240907 -0.046393353
0003c0 a1 ff 0c 3d 79 3f 08 be 0a f5 18 3e 79 28 90 3d
       0.034423474 -0.13305463 0.14937225 0.070389695
0003d0 51 0c 14 3d 28 53 09 3e 39 60 78 bd 78 fc e3 3d
       0.03614456 0.13410628 -0.06063864 0.11132139
0003e0 77 55 f6 bc 7a 9b 94 bd 36 e3 ae 3d 7a 6f ea 3d
       -0.03007005 -0.07256217 0.08539431 0.11447044
0003f0 fc 3a 16 3e c6 57 df bb bb 2f cc bd 54 d0 b6 bd
       0.14670938 -0.0068158833 -0.09970041 -0.08926454

lstm.bias_ih_l1 f4 [200]
000000 b0 6d 66 bd de 6f 15 3d fb 8b 97 bd 08 b3 ad 3d
       -0.05625695 0.036483638 -0.07399746 0.08481413
000010 ca e1 10 bd a0 a1 0c 3e cf 59 f5 3d e6 77 10 be
       -0.03537158 0.1373353 0.1198002 -0.14108238
000020 88 45 df 3c 21 dc ff bd 4e 92 a7 bd 09 06 e9 3b
       0.027254835 -0.12493158 -0.08182202 0.007111315
000030 9b 19 83 bd 26 27 1e 3c ac 47 22 bd 2b 71 12 3e
       -0.06401368 0.009652888 -0.039619133 0.14300983
000040 cf 73 a8 3d fb 6a ed 3d 6b 7d 6e bc 49 af b8 3c
       0.08225214 0.115926705 -0.014556269 0.02254452
000050 ac 42 d7 3d f8 ea 71 ba 0f 86 40 bd e7 7b e3 3d
       0.105107635 -0.00092284335 -0.04700285 0.11107617
000060 0d 44 93 bd 26 23 a7 3c 95 85 74 bd e7 3d 63 bd
       -0.07190714 0.020402502 -0.059697706 -0.055478957
000070 7e 6a 58 bd 8e 27 a3 bd c4 25 a4 bd a0 91 4c 3d
       -0.052835934 -0.07966529 -0.08015016 0.049943566
000080 5f 7d 68 bd 06 45 02 be d0 93 d4 3c 1d d5 eb bd
       -0.05676019 -0.12721643 0.025949389 -0.115152575
000090 12 f8 1c bc 38 a1 d5 3d 02 90 42 3d db 03 58 bc
       -0.009580629 0.10431141 0.047500618 -0.013184513
0000a0 c5 f5 27 3d 21 f9 07 3d 79 72 ed 3c cc 9a e7 bc
       0.04100587 0.033196572 0.028985249 -0.028272055
0000b0 84 67 b4 bd dd d5 74 3d 01 1b 94 3d e5 88 d1 bd
       -0.088088065 0.05977427 0.07231713 -0.10231189
0000c0 d4 81 e8 bb 15 e7 b8 3d c4 95 05 be e2 d1 c5 3d
       -0.007095555 0.090284504 -0.13045412 0.096591726
0000d0 7d 2a e9 bd b3 df 99 3d 82 89 b6 3c 3d 1c 93 3d
       -0.11385057 0.0751337 0.022282366 0.071831204
0000e0 10 79 1b be 1d 76 a3 bd 55 5c 5e bd 5f 89 01 be
       -0.151829 -0.07981513 -0.054287273 -0.12650059
0000f0 e9 76 a6 bc 9e 97 a5 bd 2d ef 13 3c 93 94 b2 bd
       -0.020320373 -0.08085559 0.009029192 -0.087197445
000100 d6 48 d5 3c d6 55 bb bd 20 d7 5e 3b 98 84 e3 3d
       0.026035707 -0.09147231 0.0034002736 0.111092746
000110 9b 92 1d be 6e d7 76 3b 4a f5 98 3d a9 c5 d7 3b
       -0.15387957 0.0037665027 0.0746866 0.006584842
000120 c2 b4 e2 bd 1a 24 62 3c 08 dc 91 3d 1d 59 ea bd
       -0.11069633 0.013802553 0.07122046 -0.11442778
000130 30 c8 7c 3d 91 b9 05 3e c8 07 57 bd 2a 2e b4 bc
       0.06171435 0.13059069 -0.052497655 -0.021994669
000140 69 5c cf 3d 04 7c 29 be 65 8e 33 bc 8f 78 4f 3d
       0.10125048 -0.16551214 -0.0109592425 0.050652083
000150 cb 99 f8 3d e9 af a1 3d 4c 19 f3 bc 65 95 b8 3b
       0.12138709 0.0789488 -0.029675148 0.0056330436
000160 1f 08 fb bd bf f5 0c be 15 a7 05 3e 06 6a 9c bc
       -0.12257408 -0.1376562 0.13052018 -0.019093525
000170 74 94 2e bd cb f3 6c 3d 7c 14 1d bc 0a e5 bc bd
       -0.042622045 0.057849687 -0.009587403 -0.09223373
000180 30 32 48 3d 6a 6f 02 be c1 ad 9d bd f2 5d f1 3d
       0.048875988 -0.12737814 -0.076991566 0.11785497
000190 5c 8c 77 bd 19 67 0b 3e 1c 22 bb 3d 27 21 e1 bd
       -0.06043659 0.13613547 0.09137365 -0.109926514
0001a0 a3 87 e5 bd 87 67 08 3d 2f b6 09 3c 40 ba 5c 3c
       -0.11207511 0.033301856 0.008405252 0.01347214
0001b0 f3 92 0b bd 68 c0 c6 3c f3 92 0c bd 56 bc cf bd
       -0.03407569 0.024261668 -0.03431983 -0.10143344
0001c0 25 95 35 bd 9c 8e 6d bd b0 7f 60 bd f5 2e ff bd
       -0.04433169 -0.05799733 -0.054809272 -0.12460128
0001d0 cb 85 f1 3c fd a2 16 be e2 45 dc 3d 64 1c 6b 3c
       0.029482743 -0.14710613 0.107555166 0.014350031
0001e0 a9 46 8a bd 91 77 d6 bd b7 aa dd 3d 55 d9 7d 3d
       -0.067517586 -0.10472024 0.10823577 0.061974842
0001f0 38 4c f0 bc 85 ca cc bd 3c 11 35 bd f1 94 b2 bc
       -0.029333219 -0.09999565 -0.04420589 -0.021799536
000200 2d af 83 bd e7 cd 44 3d d9 d5 ab 3d 77 97 45 3d
       -0.064298965 0.048047926 0.083903976 0.04824015
000210 8f 2a 95 3c e4 d9 7d bd ca 6e e5 bd 4f 72 c8 3d
       0.01820877 -0.061975375 -0.11202772 0.09787428
000220 26 87 cd bd c0 0e a5 3d 1a c8 b9 3d 5f 9c 0f 3c
       -0.10035543 0.08059454 0.090713695 0.008765309
000230 b6 53 a7 bc cb 17 a2 3d e3 88 83 bd d3 a9 b0 3d
       -0.020425659 0.079146944 -0.064225934 0.086261414
000240 c0 ca 95 bc 8e 87 fe 3d a6 62 9d 3d 08 42 98 bd
       -0.018285155 0.12428199 0.07684831 -0.074344695
000250 5a e3 ee bd e6 dd cc bd 96 0b b7 3d 04 75 cf 3d
       -0.116644576 -0.10003261 0.08937757 0.10129741
000260 62 13 2e bc 26 4a 67 bd 90 c1 05 be 91 6f c1 bd
       -0.010624738 -0.056467198 -0.1306212 -0.09445108
000270 dd 47 4c bd 9e c1 e4 bd f8 f5 8f bd 14 cc 8b 3d
       -0.04987322 -0.11169742 -0.07029337 0.06826034
000280 c6 08 be 3d b7 90 65 3b c0 3a e7 3d 65 e9 9f 3b
       0.09279017 0.0035028884 0.112905025 0.0048801177
000290 ca a3 c9 ba 19 6e 0e 3d e2 f3 e0 3d d6 71 8c bd
       -0.0015383896 0.034772966 0.10984017 -0.0685765
0002a0 b6 8f 6d bd 29 87 f5 3c 94 93 d0 3c dc 72 9f bd
       -0.05799838 0.029971676 0.025460996 -0.077855796
0002b0 6e 50 bc 3d 3e 37 88 bc 4c 2e 82 3d 4e 80 65 3d
       0.09195028 -0.016627904 0.06356487 0.056030564
0002c0 20 d4 82 3d 67 15 78 bd d6 b9 eb bd bd f5 ae ba
       0.06388116 -0.060567286 -0.11510055 -0.0013348382
0002d0 b6 78 25 3d 6c 29 9c 3d ca 4c ea 3d 28 5a a7 3c
       0.040398322 0.07625088 0.114404276 0.020428732
0002e0 70 7b eb bd 76 55 25 3d 75 bc a1 3d b4 dc ec bd
       -0.11498153 0.040364705 0.078972735 -0.11565533
0002f0 8f 72 f3 3d 59 5f d9 3d 01 86 d9 3c 48 d2 bc bd
       0.11887085 0.10613889 0.026553156 -0.092197955
000300 c7 a6 99 bd d6 9a ff bd 85 63 c6 bd d5 98 ef bd
       -0.075025134 -0.124807045 -0.096869506 -0.11699072
000310 ec e8 52 bc 61 16 95 bd f8 e9 a8 3d a6 9c 8b 3d
       -0.012872916 -0.07279659 0.08247751 0.06816988

lstm.bias_hh_l1 f4 [200]
000000 95 d0 02 be 16 74 2a 3e 24 81 e0 bc f4 88 0a 3e
       -0.1277488 0.16645846 -0.027405329 0.13528806
000010 b8 93 aa bd c6 40 d8 bb 7b 76 97 bd d7 f0 85 bd
       -0.08328956 -0.0065995185 -0.07395645 -0.06540077
000020 16 f1 a9 3d ac 4e 9c 3d 8f a3 b6 3c f9 a3 a0 bd
       0.082979366 0.07632193 0.022294788 -0.07843775
000030 c9 89 ab bd d7 91 08 bd f5 36 b7 bd 5d 39 44 bc
       -0.0837589 -0.03334221 -0.08946029 -0.011976567
000040 c1 e4 ce bd bf 9a 62 3d 18 3f 02 3e 05 4f 5e 3c
       -0.10102225 0.05532336 0.12719381 0.013568644
000050 1d 40 00 3e 7a 8f ab bd 2b 44 43 bc 83 14 ac bd
       0.12524457 -0.08376975 -0.011918108 -0.0840235
000060 6d 8c c4 bc 3b fa f6 3b 8b c2 8d 3c ce 8b cf bc
       -0.023992741 0.007537154 0.01730468 -0.025335219
000070 2a c1 37 bd a0 b9 ff 3d d2 7d 05 bd 3d 35 d3 bd
       -0.04486195 0.12486577 -0.032590695 -0.10312889
000080 1c ed fe bd d2 44 2b bd ea 4e 55 bd 2c 86 81 3c
       -0.12447569 -0.04181368 -0.05207721 0.015811048
000090 3f ec 00 3e 88 69 c1 bd d8 72 c2 3d 83 3c 22 3b
       0.1259012 -0.094439566 0.09494561 0.0024755306
0000a0 40 2b 0f 3e 7e 34 55 3a c8 aa cd bd 21 7d d8 bd
       0.13981342 0.0008133127 -0.100423396 -0.105707414
0000b0 5b 0f ca bc 11 c7 c5 bd 50 4a 10 be 3c 79 00 be
       -0.024665525 -0.096571095 -0.14090848 -0.12546247
0000c0 f8 64 97 bc 24 14 bd 3c d1 95 bd bd 9e 5b 14 3e
       -0.018480763 0.023080893 -0.09257091 0.14488074
0000d0 8a 47 57 bd dc 66 70 3d b4 c4 00 be e3 76 d1 3d
       -0.05255846 0.058691844 -0.12575036 0.10227754
0000e0 8e ed d4 bd 2b 2b 63 bc 39 9e 0b bc 35 75 77 bd
       -0.103968725 -0.0138652725 -0.00852161 -0.06041451
0000f0 45 0a a2 3d 30 c2 fa bd 25 c7 13 be 34 9c 25 3d
       0.07912115 -0.122440696 -0.14431436 0.04043217
000100 3a 74 12 be 0a 62 6e bd e0 0d ce 3c 92 18 c8 3d
       -0.1430215 -0.058198966 0.0251531 0.097703114
000110 f7 77 d6 3c 0c 6f 07 be c3 d9 fc bd e2 a8 cb 3c
       0.02618025 -0.13225955 -0.12346222 0.024860803
000120 d7 c8 03 be 1e 64 70 3d be 5a 8f 3d 2b a3 86 3d
       -0.12869583 0.05868923 0.069997296 0.065740906
000130 a1 21 bb 3d 64 7c 27 3d 7a 54 cb bd 70 24 54 bd
       0.091372736 0.040890113 -0.09928222 -0.051792562
000140 15 a4 07 3e 7a a7 9c 3d cd 29 c0 3d 48 b6 03 be
       0.13246186 0.07649131 0.09382973 -0.12862504
000150 6d cc e9 bd ab 6b ba 3d b0 13 1d 3d 6a e1 ba 3d
       -0.11415944 0.09102567 0.038348854 0.091250256
000160 2b 9f 26 bd 84 2a 3f 3d c9 09 8e bb cf f6 98 3d
       -0.04067914 0.046671405 -0.0043346626 0.0746895
000170 b5 f2 bd bd 3d 5f df 3d a3 fe ad bc d0 74 98 3d
       -0.09274808 0.10906837 -0.021239584 0.07444155
000180 99 ff ae 3d f1 12 a3 3d a9 62 f2 bd 64 d3 a5 bd
       0.08544845 0.07962597 -0.11835224 -0.0809696
000190 19 81 fe 3d 00 ad 0a be a3 61 77 bd 69 a9 fd 3d
       0.12426967 -0.13542557 -0.060395848 0.12385828
0001a0 87 97 39 bd 38 55 e2 bd 71 d6 9e 3d ac 7a 63 bd
       -0.045310523 -0.110514104 0.07755745 -0.05553691
0001b0 44 18 d7 3b 47 82 a6 bd f1 4d 0a 3d 41 66 98 3a
       0.006564172 -0.08130317 0.033765737 0.0011627154
0001c0 b5 a6 b7 3d 2b 50 dc 3c 73 54 6a 3c ef 23 04 3d
       0.08967344 0.026893696 0.014302361 0.03226083
0001d0 64 36 7b bd bc 46 fa 3d 55 ad c0 3b 75 53 cd 3d
       -0.061331168 0.12220523 0.005880038 0.10025684
0001e0 2c ee 89 3c 26 0a b6 3c 2f 0d a0 bd 39 e8 f7 bc
       0.016837202 0.022221636 -0.078150146 -0.0302621
0001f0 74 bd 40 b9 62 e1 c8 bc 11 c9 d9 3d e7 6d b5 bd
       -0.00018381124 -0.024521533 0.106340535 -0.08858853
000200 a2 ef 75 3d 28 de 64 3c 57 92 5a bd 07 9d 4d bd
       0.060042985 0.013968982 -0.053362217 -0.05019858
000210 92 e3 70 3c 02 b0 5b bd 81 e0 28 3d 65 fe b9 bc
       0.0147026945 -0.05363465 0.04122973 -0.022704313
000220 d8 4e b0 3d 34 b6 b0 3d 12 79 50 bc b6 d9 20 bd
       0.08608788 0.086285025 -0.012724178 -0.039270125
000230 c1 8c a6 3d ad d6 f9 bd b0 bb a2 3c 35 0a a9 bd
       0.081323154 -0.12199149 0.019864887 -0.082539
000240 4c 42 88 3d 15 92 b9 3d 58 bb 0c 3d 99 a8 70 bc
       0.0665327 0.09061066 0.034358352 -0.014688634
000250 67 ca 87 3d 3c 19 e3 3d 96 8e 82 3d 26 33 b3 3d
       0.06630402 0.110887975 0.06374852 0.0874999
000260 9d af af 3b 1b 7f ea 3d ce 3f f9 3b 5f 9b b4 bd
       0.005361511 0.11450025 0.007606483 -0.08818697
000270 56 a6 bb 3d b3 53 cd bd 22 bf ac 3d e5 42 dd 3d
       0.091625854 -0.1002573 0.08434893 0.10803775
000280 26 1a 9b 3d 92 e3 e5 bd ff 93 70 3d 86 0a 07 be
       0.07573347 -0.11225046 0.05873489 -0.13187608
000290 f3 73 2c bd 3d b2 01 3d 36 f1 14 3b 09 23 47 bd
       -0.042102765 0.031664122 0.002272678 -0.048617397
0002a0 ca 50 9b 3d ba 51 04 bd eb e4 2c bc 0a bc 86 3d
       0.07583769 -0.032304503 -0.010552625 0.06578834
0002b0 5f 56 cf 3c d8 6b d9 3c 8d 6b 0f 3d f2 09 25 3d
       0.02530974 0.026540682 0.035014678 0.040292688
0002c0 ee 9a 07 3e de 85 ba 3c 70 22 ce 3d 83 ba 95 bd
       0.13242695 0.022768911 0.10065162 -0.07310965
0002d0 69 fd 3f bc 0e 14 48 bc d6 0f b1 3d 91 26 66 3c
       -0.0117181325 -0.012211813 0.086455986 0.014047281
0002e0 8c 5c 94 ba fa c6 ad bc 2d 45 a0 3d 7a b3 59 3d
       -0.0011319085 -0.021213043 0.07825694 0.053149678
0002f0 7f d6 7d bd 9d 82 a5 bd 74 7a 5a 3c 1f 6f 05 bd
       -0.061972138 -0.08081553 0.013334859 -0.032576676
000300 51 d7 07 3e d6 33 c9 bd 3c 9a 01 3e 22 2f ab bd
       0.1326573 -0.0982434 0.12656492 -0.08358599
000310 d6 c5 24 3c 5b fe 41 3d 1c 49 aa 3d 30 28 10 bd
       0.010056933 0.047361713 0.08314726 -0.035194576
